…
snapshot: 0
snapshot_prefix: "vgg16_rpn"
average_loss: 100
I0909 05:59:55.638602 2482359 solver.cpp:81] Creating training net from train_net file: models/pascal_voc/VGG16/faster_rcnn_alt_opt/stage1_rpn_train.pt
I0909 05:59:55.639539 2482359 net.cpp:49] Initializing net from parameters: 
name: "VGG_ILSVRC_16_layers"
state {
  phase: TRAIN
}
layer {
  name: "input-data"
  type: "Python"
  top: "data"
  top: "im_info"
  top: "gt_boxes"
  python_param {
    module: "roi_data_layer.layer"
    layer: "RoIDataLayer"
    param_str: "\'num_classes\': 21"
  }
}
layer {
  name: "conv1_1"
  type: "Convolution"
  bottom: "data"
  top: "conv1_1"
  param {
    lr_mult: 0
    decay_mult: 0
  }
  param {
    lr_mult: 0
    decay_mult: 0
  }
  convolution_param {
    num_output: 64
    pad: 1
    kernel_size: 3
  }
}
layer {
  name: "relu1_1"
  type: "ReLU"
  bottom: "conv1_1"
  top: "conv1_1"
}
layer {
  name: "conv1_2"
  type: "Convolution"
  bottom: "conv1_1"
  top: "conv1_2"
  param {
    lr_mult: 0
    decay_mult: 0
  }
  param {
    lr_mult: 0
    decay_mult: 0
  }
  convolution_param {
    num_output: 64
    pad: 1
    kernel_size: 3
  }
}
layer {
  name: "relu1_2"
  type: "ReLU"
  bottom: "conv1_2"
  top: "conv1_2"
}
layer {
  name: "pool1"
  type: "Pooling"
  bottom: "conv1_2"
  top: "pool1"
  pooling_param {
    pool: MAX
    kernel_size: 2
    stride: 2
  }
}
layer {
  name: "conv2_1"
  type: "Convolution"
  bottom: "pool1"
  top: "conv2_1"
  param {
    lr_mult: 0
    decay_mult: 0
  }
  param {
    lr_mult: 0
    decay_mult: 0
  }
  convolution_param {
    num_output: 128
    pad: 1
    kernel_size: 3
  }
}
layer {
  name: "relu2_1"
  type: "ReLU"
  bottom: "conv2_1"
  top: "conv2_1"
}
layer {
  name: "conv2_2"
  type: "Convolution"
  bottom: "conv2_1"
  top: "conv2_2"
  param {
    lr_mult: 0
    decay_mult: 0
  }
  param {
    lr_mult: 0
    decay_mult: 0
  }
  convolution_param {
    num_output: 128
    pad: 1
    kernel_size: 3
  }
}
layer {
  name: "relu2_2"
  type: "ReLU"
  bottom: "conv2_2"
  top: "conv2_2"
}
layer {
  name: "pool2"
  type: "Pooling"
  bottom: "conv2_2"
  top: "pool2"
  pooling_param {
    pool: MAX
    kernel_size: 2
    stride: 2
  }
}
layer {
  name: "conv3_1"
  type: "Convolution"
  bottom: "pool2"
  top: "conv3_1"
  param {
    lr_mult: 1
  }
  param {
    lr_mult: 2
  }
  convolution_param {
    num_output: 256
    pad: 1
    kernel_size: 3
  }
}
layer {
  name: "relu3_1"
  type: "ReLU"
  bottom: "conv3_1"
  top: "conv3_1"
}
layer {
  name: "conv3_2"
  type: "Convolution"
  bottom: "conv3_1"
  top: "conv3_2"
  param {
    lr_mult: 1
  }
  param {
    lr_mult: 2
  }
  convolution_param {
    num_output: 256
    pad: 1
    kernel_size: 3
  }
}
layer {
  name: "relu3_2"
  type: "ReLU"
  bottom: "conv3_2"
  top: "conv3_2"
}
layer {
  name: "conv3_3"
  type: "Convolution"
  bottom: "conv3_2"
  top: "conv3_3"
  param {
    lr_mult: 1
  }
  param {
    lr_mult: 2
  }
  convolution_param {
    num_output: 256
    pad: 1
    kernel_size: 3
  }
}
layer {
  name: "relu3_3"
  type: "ReLU"
  bottom: "conv3_3"
  top: "conv3_3"
}
layer {
  name: "pool3"
  type: "Pooling"
  bottom: "conv3_3"
  top: "pool3"
  pooling_param {
    pool: MAX
    kernel_size: 2
    stride: 2
  }
}
layer {
  name: "conv4_1"
  type: "Convolution"
  bottom: "pool3"
  top: "conv4_1"
  param {
    lr_mult: 1
  }
  param {
    lr_mult: 2
  }
  convolution_param {
    num_output: 512
    pad: 1
    kernel_size: 3
  }
}
layer {
  name: "relu4_1"
  type: "ReLU"
  bottom: "conv4_1"
  top: "conv4_1"
}
layer {
  name: "conv4_2"
  type: "Convolution"
  bottom: "conv4_1"
  top: "conv4_2"
  param {
    lr_mult: 1
  }
  param {
    lr_mult: 2
  }
  convolution_param {
    num_output: 512
    pad: 1
    kernel_size: 3
  }
}
layer {
  name: "relu4_2"
  type: "ReLU"
  bottom: "conv4_2"
  top: "conv4_2"
}
layer {
  name: "conv4_3"
  type: "Convolution"
  bottom: "conv4_2"
  top: "conv4_3"
  param {
    lr_mult: 1
  }
  param {
    lr_mult: 2
  }
  convolution_param {
    num_output: 512
    pad: 1
    kernel_size: 3
  }
}
layer {
  name: "relu4_3"
  type: "ReLU"
  bottom: "conv4_3"
  top: "conv4_3"
}
layer {
  name: "pool4"
  type: "Pooling"
  bottom: "conv4_3"
  top: "pool4"
  pooling_param {
    pool: MAX
    kernel_size: 2
    stride: 2
  }
}
layer {
  name: "conv5_1"
  type: "Convolution"
  bottom: "pool4"
  top: "conv5_1"
  param {
    lr_mult: 1
  }
  param {
    lr_mult: 2
  }
  convolution_param {
    num_output: 512
    pad: 1
    kernel_size: 3
  }
}
layer {
  name: "relu5_1"
  type: "ReLU"
  bottom: "conv5_1"
  top: "conv5_1"
}
layer {
  name: "conv5_2"
  type: "Convolution"
  bottom: "conv5_1"
  top: "conv5_2"
  param {
    lr_mult: 1
  }
  param {
    lr_mult: 2
  }
  convolution_param {
    num_output: 512
    pad: 1
    kernel_size: 3
  }
}
layer {
  name: "relu5_2"
  type: "ReLU"
  bottom: "conv5_2"
  top: "conv5_2"
}
layer {
  name: "conv5_3"
  type: "Convolution"
  bottom: "conv5_2"
  top: "conv5_3"
  param {
    lr_mult: 1
  }
  param {
    lr_mult: 2
  }
  convolution_param {
    num_output: 512
    pad: 1
    kernel_size: 3
  }
}
layer {
  name: "relu5_3"
  type: "ReLU"
  bottom: "conv5_3"
  top: "conv5_3"
}
layer {
  name: "rpn_conv/3x3"
  type: "Convolution"
  bottom: "conv5_3"
  top: "rpn/output"
  param {
    lr_mult: 1
  }
  param {
    lr_mult: 2
  }
  convolution_param {
    num_output: 512
    pad: 1
    kernel_size: 3
    stride: 1
    weight_filler {
      type: "gaussian"
      std: 0.01
    }
    bias_filler {
      type: "constant"
      value: 0
    }
  }
}
layer {
  name: "rpn_relu/3x3"
  type: "ReLU"
  bottom: "rpn/output"
  top: "rpn/output"
}
layer {
  name: "rpn_cls_score"
  type: "Convolution"
  bottom: "rpn/output"
  top: "rpn_cls_score"
  param {
    lr_mult: 1
  }
  param {
    lr_mult: 2
  }
  convolution_param {
    num_output: 18
    pad: 0
    kernel_size: 1
    stride: 1
    weight_filler {
      type: "gaussian"
      std: 0.01
    }
    bias_filler {
      type: "constant"
      value: 0
    }
  }
}
layer {
  name: "rpn_bbox_pred"
  type: "Convolution"
  bottom: "rpn/output"
  top: "rpn_bbox_pred"
  param {
    lr_mult: 1
  }
  param {
    lr_mult: 2
  }
  convolution_param {
    num_output: 36
    pad: 0
    kernel_size: 1
    stride: 1
    weight_filler {
      type: "gaussian"
      std: 0.01
    }
    bias_filler {
      type: "constant"
      value: 0
    }
  }
}
layer {
  name: "rpn_cls_score_reshape"
  type: "Reshape"
  bottom: "rpn_cls_score"
  top: "rpn_cls_score_reshape"
  reshape_param {
    shape {
      dim: 0
      dim: 2
      dim: -1
      dim: 0
    }
  }
}
layer {
  name: "rpn-data"
  type: "Python"
  bottom: "rpn_cls_score"
  bottom: "gt_boxes"
  bottom: "im_info"
  bottom: "data"
  top: "rpn_labels"
  top: "rpn_bbox_targets"
  top: "rpn_bbox_inside_weights"
  top: "rpn_bbox_outside_weights"
  python_param {
    module: "rpn.anchor_target_layer"
    layer: "AnchorTargetLayer"
    param_str: "\'feat_stride\': 16"
  }
}
layer {
  name: "rpn_loss_cls"
  type: "SoftmaxWithLoss"
  bottom: "rpn_cls_score_reshape"
  bottom: "rpn_labels"
  top: "rpn_cls_loss"
  loss_weight: 1
  propagate_down: true
  propagate_down: false
  loss_param {
    ignore_label: -1
    normalize: true
  }
}
layer {
  name: "rpn_loss_bbox"
  type: "SmoothL1Loss"
  bottom: "rpn_bbox_pred"
  bottom: "rpn_bbox_targets"
  bottom: "rpn_bbox_inside_weights"
  bottom: "rpn_bbox_outside_weights"
  top: "rpn_loss_bbox"
  loss_weight: 1
  smooth_l1_loss_param {
    sigma: 3
  }
}
layer {
  name: "dummy_roi_pool_conv5"
  type: "DummyData"
  top: "dummy_roi_pool_conv5"
  dummy_data_param {
    data_filler {
      type: "constant"
      value: 0
    }
    shape {
      dim: 1
      dim: 25088
    }
  }
}
layer {
  name: "fc6"
  type: "InnerProduct"
  bottom: "dummy_roi_pool_conv5"
  top: "fc6"
  param {
    lr_mult: 0
    decay_mult: 0
  }
  param {
    lr_mult: 0
    decay_mult: 0
  }
  inner_product_param {
    num_output: 4096
  }
}
layer {
  name: "relu6"
  type: "ReLU"
  bottom: "fc6"
  top: "fc6"
}
layer {
  name: "drop6"
  type: "Dropout"
  bottom: "fc6"
  top: "fc6"
  dropout_param {
    dropout_ratio: 0.5
  }
}
layer {
  name: "fc7"
  type: "InnerProduct"
  bottom: "fc6"
  top: "fc7"
  param {
    lr_mult: 0
    decay_mult: 0
  }
  param {
    lr_mult: 0
    decay_mult: 0
  }
  inner_product_param {
    num_output: 4096
  }
}
layer {
  name: "silence_fc7"
  type: "Silence"
  bottom: "fc7"
}
I0909 05:59:55.639729 2482359 layer_factory.hpp:77] Creating layer input-data
I0909 05:59:55.641047 2482359 net.cpp:106] Creating Layer input-data
I0909 05:59:55.641062 2482359 net.cpp:411] input-data -> data
I0909 05:59:55.641084 2482359 net.cpp:411] input-data -> im_info
I0909 05:59:55.641091 2482359 net.cpp:411] input-data -> gt_boxes
RoiDataLayer: name_to_top: {'gt_boxes': 2, 'data': 0, 'im_info': 1}
I0909 05:59:55.651470 2482359 net.cpp:150] Setting up input-data
I0909 05:59:55.651489 2482359 net.cpp:157] Top shape: 1 3 600 1024 (1843200)
I0909 05:59:55.651494 2482359 net.cpp:157] Top shape: 1 3 (3)
I0909 05:59:55.651497 2482359 net.cpp:157] Top shape: 1 4 (4)
I0909 05:59:55.651500 2482359 net.cpp:165] Memory required for data: 7372828
I0909 05:59:55.651505 2482359 layer_factory.hpp:77] Creating layer data_input-data_0_split
I0909 05:59:55.651512 2482359 net.cpp:106] Creating Layer data_input-data_0_split
I0909 05:59:55.651516 2482359 net.cpp:454] data_input-data_0_split <- data
I0909 05:59:55.651522 2482359 net.cpp:411] data_input-data_0_split -> data_input-data_0_split_0
I0909 05:59:55.651530 2482359 net.cpp:411] data_input-data_0_split -> data_input-data_0_split_1
I0909 05:59:55.651579 2482359 net.cpp:150] Setting up data_input-data_0_split
I0909 05:59:55.651587 2482359 net.cpp:157] Top shape: 1 3 600 1024 (1843200)
I0909 05:59:55.651592 2482359 net.cpp:157] Top shape: 1 3 600 1024 (1843200)
I0909 05:59:55.651595 2482359 net.cpp:165] Memory required for data: 22118428
I0909 05:59:55.651598 2482359 layer_factory.hpp:77] Creating layer conv1_1
I0909 05:59:55.651608 2482359 net.cpp:106] Creating Layer conv1_1
I0909 05:59:55.651612 2482359 net.cpp:454] conv1_1 <- data_input-data_0_split_0
I0909 05:59:55.651618 2482359 net.cpp:411] conv1_1 -> conv1_1
I0909 05:59:55.654027 2482359 net.cpp:150] Setting up conv1_1
I0909 05:59:55.654057 2482359 net.cpp:157] Top shape: 1 64 600 1024 (39321600)
I0909 05:59:55.654060 2482359 net.cpp:165] Memory required for data: 179404828
I0909 05:59:55.654072 2482359 layer_factory.hpp:77] Creating layer relu1_1
I0909 05:59:55.654078 2482359 net.cpp:106] Creating Layer relu1_1
I0909 05:59:55.654081 2482359 net.cpp:454] relu1_1 <- conv1_1
I0909 05:59:55.654086 2482359 net.cpp:397] relu1_1 -> conv1_1 (in-place)
I0909 05:59:55.654096 2482359 net.cpp:150] Setting up relu1_1
I0909 05:59:55.654108 2482359 net.cpp:157] Top shape: 1 64 600 1024 (39321600)
I0909 05:59:55.654110 2482359 net.cpp:165] Memory required for data: 336691228
I0909 05:59:55.654114 2482359 layer_factory.hpp:77] Creating layer conv1_2
I0909 05:59:55.654124 2482359 net.cpp:106] Creating Layer conv1_2
I0909 05:59:55.654126 2482359 net.cpp:454] conv1_2 <- conv1_1
I0909 05:59:55.654132 2482359 net.cpp:411] conv1_2 -> conv1_2
I0909 05:59:55.656534 2482359 net.cpp:150] Setting up conv1_2
I0909 05:59:55.656560 2482359 net.cpp:157] Top shape: 1 64 600 1024 (39321600)
I0909 05:59:55.656564 2482359 net.cpp:165] Memory required for data: 493977628
I0909 05:59:55.656572 2482359 layer_factory.hpp:77] Creating layer relu1_2
I0909 05:59:55.656579 2482359 net.cpp:106] Creating Layer relu1_2
I0909 05:59:55.656582 2482359 net.cpp:454] relu1_2 <- conv1_2
I0909 05:59:55.656589 2482359 net.cpp:397] relu1_2 -> conv1_2 (in-place)
I0909 05:59:55.656595 2482359 net.cpp:150] Setting up relu1_2
I0909 05:59:55.656599 2482359 net.cpp:157] Top shape: 1 64 600 1024 (39321600)
I0909 05:59:55.656602 2482359 net.cpp:165] Memory required for data: 651264028
I0909 05:59:55.656605 2482359 layer_factory.hpp:77] Creating layer pool1
I0909 05:59:55.656610 2482359 net.cpp:106] Creating Layer pool1
I0909 05:59:55.656613 2482359 net.cpp:454] pool1 <- conv1_2
I0909 05:59:55.656618 2482359 net.cpp:411] pool1 -> pool1
I0909 05:59:55.656682 2482359 net.cpp:150] Setting up pool1
I0909 05:59:55.656692 2482359 net.cpp:157] Top shape: 1 64 300 512 (9830400)
I0909 05:59:55.656694 2482359 net.cpp:165] Memory required for data: 690585628
I0909 05:59:55.656697 2482359 layer_factory.hpp:77] Creating layer conv2_1
I0909 05:59:55.656705 2482359 net.cpp:106] Creating Layer conv2_1
I0909 05:59:55.656709 2482359 net.cpp:454] conv2_1 <- pool1
I0909 05:59:55.656715 2482359 net.cpp:411] conv2_1 -> conv2_1
I0909 05:59:55.657739 2482359 net.cpp:150] Setting up conv2_1
I0909 05:59:55.657764 2482359 net.cpp:157] Top shape: 1 128 300 512 (19660800)
I0909 05:59:55.657768 2482359 net.cpp:165] Memory required for data: 769228828
I0909 05:59:55.657776 2482359 layer_factory.hpp:77] Creating layer relu2_1
I0909 05:59:55.657783 2482359 net.cpp:106] Creating Layer relu2_1
I0909 05:59:55.657788 2482359 net.cpp:454] relu2_1 <- conv2_1
I0909 05:59:55.657794 2482359 net.cpp:397] relu2_1 -> conv2_1 (in-place)
I0909 05:59:55.657800 2482359 net.cpp:150] Setting up relu2_1
I0909 05:59:55.657804 2482359 net.cpp:157] Top shape: 1 128 300 512 (19660800)
I0909 05:59:55.657807 2482359 net.cpp:165] Memory required for data: 847872028
I0909 05:59:55.657810 2482359 layer_factory.hpp:77] Creating layer conv2_2
I0909 05:59:55.657816 2482359 net.cpp:106] Creating Layer conv2_2
I0909 05:59:55.657821 2482359 net.cpp:454] conv2_2 <- conv2_1
I0909 05:59:55.657826 2482359 net.cpp:411] conv2_2 -> conv2_2
I0909 05:59:55.659476 2482359 net.cpp:150] Setting up conv2_2
I0909 05:59:55.659489 2482359 net.cpp:157] Top shape: 1 128 300 512 (19660800)
I0909 05:59:55.659504 2482359 net.cpp:165] Memory required for data: 926515228
I0909 05:59:55.659510 2482359 layer_factory.hpp:77] Creating layer relu2_2
I0909 05:59:55.659517 2482359 net.cpp:106] Creating Layer relu2_2
I0909 05:59:55.659521 2482359 net.cpp:454] relu2_2 <- conv2_2
I0909 05:59:55.659525 2482359 net.cpp:397] relu2_2 -> conv2_2 (in-place)
I0909 05:59:55.659533 2482359 net.cpp:150] Setting up relu2_2
I0909 05:59:55.659538 2482359 net.cpp:157] Top shape: 1 128 300 512 (19660800)
I0909 05:59:55.659540 2482359 net.cpp:165] Memory required for data: 1005158428
I0909 05:59:55.659544 2482359 layer_factory.hpp:77] Creating layer pool2
I0909 05:59:55.659549 2482359 net.cpp:106] Creating Layer pool2
I0909 05:59:55.659553 2482359 net.cpp:454] pool2 <- conv2_2
I0909 05:59:55.659557 2482359 net.cpp:411] pool2 -> pool2
I0909 05:59:55.659612 2482359 net.cpp:150] Setting up pool2
I0909 05:59:55.659621 2482359 net.cpp:157] Top shape: 1 128 150 256 (4915200)
I0909 05:59:55.659624 2482359 net.cpp:165] Memory required for data: 1024819228
I0909 05:59:55.659627 2482359 layer_factory.hpp:77] Creating layer conv3_1
I0909 05:59:55.659636 2482359 net.cpp:106] Creating Layer conv3_1
I0909 05:59:55.659639 2482359 net.cpp:454] conv3_1 <- pool2
I0909 05:59:55.659646 2482359 net.cpp:411] conv3_1 -> conv3_1
I0909 05:59:55.660776 2482359 net.cpp:150] Setting up conv3_1
I0909 05:59:55.660804 2482359 net.cpp:157] Top shape: 1 256 150 256 (9830400)
I0909 05:59:55.660809 2482359 net.cpp:165] Memory required for data: 1064140828
I0909 05:59:55.660817 2482359 layer_factory.hpp:77] Creating layer relu3_1
I0909 05:59:55.660823 2482359 net.cpp:106] Creating Layer relu3_1
I0909 05:59:55.660826 2482359 net.cpp:454] relu3_1 <- conv3_1
I0909 05:59:55.660831 2482359 net.cpp:397] relu3_1 -> conv3_1 (in-place)
I0909 05:59:55.660837 2482359 net.cpp:150] Setting up relu3_1
I0909 05:59:55.660841 2482359 net.cpp:157] Top shape: 1 256 150 256 (9830400)
I0909 05:59:55.660845 2482359 net.cpp:165] Memory required for data: 1103462428
I0909 05:59:55.660848 2482359 layer_factory.hpp:77] Creating layer conv3_2
I0909 05:59:55.660856 2482359 net.cpp:106] Creating Layer conv3_2
I0909 05:59:55.660859 2482359 net.cpp:454] conv3_2 <- conv3_1
I0909 05:59:55.660866 2482359 net.cpp:411] conv3_2 -> conv3_2
I0909 05:59:55.662559 2482359 net.cpp:150] Setting up conv3_2
I0909 05:59:55.662573 2482359 net.cpp:157] Top shape: 1 256 150 256 (9830400)
I0909 05:59:55.662587 2482359 net.cpp:165] Memory required for data: 1142784028
I0909 05:59:55.662595 2482359 layer_factory.hpp:77] Creating layer relu3_2
I0909 05:59:55.662600 2482359 net.cpp:106] Creating Layer relu3_2
I0909 05:59:55.662605 2482359 net.cpp:454] relu3_2 <- conv3_2
I0909 05:59:55.662611 2482359 net.cpp:397] relu3_2 -> conv3_2 (in-place)
I0909 05:59:55.662616 2482359 net.cpp:150] Setting up relu3_2
I0909 05:59:55.662621 2482359 net.cpp:157] Top shape: 1 256 150 256 (9830400)
I0909 05:59:55.662623 2482359 net.cpp:165] Memory required for data: 1182105628
I0909 05:59:55.662626 2482359 layer_factory.hpp:77] Creating layer conv3_3
I0909 05:59:55.662636 2482359 net.cpp:106] Creating Layer conv3_3
I0909 05:59:55.662639 2482359 net.cpp:454] conv3_3 <- conv3_2
I0909 05:59:55.662644 2482359 net.cpp:411] conv3_3 -> conv3_3
I0909 05:59:55.664350 2482359 net.cpp:150] Setting up conv3_3
I0909 05:59:55.664364 2482359 net.cpp:157] Top shape: 1 256 150 256 (9830400)
I0909 05:59:55.664379 2482359 net.cpp:165] Memory required for data: 1221427228
I0909 05:59:55.664386 2482359 layer_factory.hpp:77] Creating layer relu3_3
I0909 05:59:55.664393 2482359 net.cpp:106] Creating Layer relu3_3
I0909 05:59:55.664397 2482359 net.cpp:454] relu3_3 <- conv3_3
I0909 05:59:55.664402 2482359 net.cpp:397] relu3_3 -> conv3_3 (in-place)
I0909 05:59:55.664408 2482359 net.cpp:150] Setting up relu3_3
I0909 05:59:55.664419 2482359 net.cpp:157] Top shape: 1 256 150 256 (9830400)
I0909 05:59:55.664423 2482359 net.cpp:165] Memory required for data: 1260748828
I0909 05:59:55.664427 2482359 layer_factory.hpp:77] Creating layer pool3
I0909 05:59:55.664433 2482359 net.cpp:106] Creating Layer pool3
I0909 05:59:55.664436 2482359 net.cpp:454] pool3 <- conv3_3
I0909 05:59:55.664440 2482359 net.cpp:411] pool3 -> pool3
I0909 05:59:55.664489 2482359 net.cpp:150] Setting up pool3
I0909 05:59:55.664499 2482359 net.cpp:157] Top shape: 1 256 75 128 (2457600)
I0909 05:59:55.664501 2482359 net.cpp:165] Memory required for data: 1270579228
I0909 05:59:55.664505 2482359 layer_factory.hpp:77] Creating layer conv4_1
I0909 05:59:55.664513 2482359 net.cpp:106] Creating Layer conv4_1
I0909 05:59:55.664516 2482359 net.cpp:454] conv4_1 <- pool3
I0909 05:59:55.664521 2482359 net.cpp:411] conv4_1 -> conv4_1
I0909 05:59:55.668536 2482359 net.cpp:150] Setting up conv4_1
I0909 05:59:55.668568 2482359 net.cpp:157] Top shape: 1 512 75 128 (4915200)
I0909 05:59:55.668572 2482359 net.cpp:165] Memory required for data: 1290240028
I0909 05:59:55.668579 2482359 layer_factory.hpp:77] Creating layer relu4_1
I0909 05:59:55.668586 2482359 net.cpp:106] Creating Layer relu4_1
I0909 05:59:55.668589 2482359 net.cpp:454] relu4_1 <- conv4_1
I0909 05:59:55.668593 2482359 net.cpp:397] relu4_1 -> conv4_1 (in-place)
I0909 05:59:55.668599 2482359 net.cpp:150] Setting up relu4_1
I0909 05:59:55.668603 2482359 net.cpp:157] Top shape: 1 512 75 128 (4915200)
I0909 05:59:55.668606 2482359 net.cpp:165] Memory required for data: 1309900828
I0909 05:59:55.668609 2482359 layer_factory.hpp:77] Creating layer conv4_2
I0909 05:59:55.668617 2482359 net.cpp:106] Creating Layer conv4_2
I0909 05:59:55.668622 2482359 net.cpp:454] conv4_2 <- conv4_1
I0909 05:59:55.668627 2482359 net.cpp:411] conv4_2 -> conv4_2
I0909 05:59:55.673851 2482359 net.cpp:150] Setting up conv4_2
I0909 05:59:55.673880 2482359 net.cpp:157] Top shape: 1 512 75 128 (4915200)
I0909 05:59:55.673884 2482359 net.cpp:165] Memory required for data: 1329561628
I0909 05:59:55.673897 2482359 layer_factory.hpp:77] Creating layer relu4_2
I0909 05:59:55.673903 2482359 net.cpp:106] Creating Layer relu4_2
I0909 05:59:55.673907 2482359 net.cpp:454] relu4_2 <- conv4_2
I0909 05:59:55.673912 2482359 net.cpp:397] relu4_2 -> conv4_2 (in-place)
I0909 05:59:55.673918 2482359 net.cpp:150] Setting up relu4_2
I0909 05:59:55.673923 2482359 net.cpp:157] Top shape: 1 512 75 128 (4915200)
I0909 05:59:55.673925 2482359 net.cpp:165] Memory required for data: 1349222428
I0909 05:59:55.673928 2482359 layer_factory.hpp:77] Creating layer conv4_3
I0909 05:59:55.673936 2482359 net.cpp:106] Creating Layer conv4_3
I0909 05:59:55.673946 2482359 net.cpp:454] conv4_3 <- conv4_2
I0909 05:59:55.673951 2482359 net.cpp:411] conv4_3 -> conv4_3
I0909 05:59:55.679193 2482359 net.cpp:150] Setting up conv4_3
I0909 05:59:55.679222 2482359 net.cpp:157] Top shape: 1 512 75 128 (4915200)
I0909 05:59:55.679226 2482359 net.cpp:165] Memory required for data: 1368883228
I0909 05:59:55.679232 2482359 layer_factory.hpp:77] Creating layer relu4_3
I0909 05:59:55.679239 2482359 net.cpp:106] Creating Layer relu4_3
I0909 05:59:55.679244 2482359 net.cpp:454] relu4_3 <- conv4_3
I0909 05:59:55.679247 2482359 net.cpp:397] relu4_3 -> conv4_3 (in-place)
I0909 05:59:55.679253 2482359 net.cpp:150] Setting up relu4_3
I0909 05:59:55.679257 2482359 net.cpp:157] Top shape: 1 512 75 128 (4915200)
I0909 05:59:55.679260 2482359 net.cpp:165] Memory required for data: 1388544028
I0909 05:59:55.679265 2482359 layer_factory.hpp:77] Creating layer pool4
I0909 05:59:55.679271 2482359 net.cpp:106] Creating Layer pool4
I0909 05:59:55.679275 2482359 net.cpp:454] pool4 <- conv4_3
I0909 05:59:55.679280 2482359 net.cpp:411] pool4 -> pool4
I0909 05:59:55.679332 2482359 net.cpp:150] Setting up pool4
I0909 05:59:55.679342 2482359 net.cpp:157] Top shape: 1 512 38 64 (1245184)
I0909 05:59:55.679344 2482359 net.cpp:165] Memory required for data: 1393524764
I0909 05:59:55.679347 2482359 layer_factory.hpp:77] Creating layer conv5_1
I0909 05:59:55.679355 2482359 net.cpp:106] Creating Layer conv5_1
I0909 05:59:55.679359 2482359 net.cpp:454] conv5_1 <- pool4
I0909 05:59:55.679366 2482359 net.cpp:411] conv5_1 -> conv5_1
I0909 05:59:55.684602 2482359 net.cpp:150] Setting up conv5_1
I0909 05:59:55.684631 2482359 net.cpp:157] Top shape: 1 512 38 64 (1245184)
I0909 05:59:55.684635 2482359 net.cpp:165] Memory required for data: 1398505500
I0909 05:59:55.684641 2482359 layer_factory.hpp:77] Creating layer relu5_1
I0909 05:59:55.684649 2482359 net.cpp:106] Creating Layer relu5_1
I0909 05:59:55.684653 2482359 net.cpp:454] relu5_1 <- conv5_1
I0909 05:59:55.684659 2482359 net.cpp:397] relu5_1 -> conv5_1 (in-place)
I0909 05:59:55.684664 2482359 net.cpp:150] Setting up relu5_1
I0909 05:59:55.684669 2482359 net.cpp:157] Top shape: 1 512 38 64 (1245184)
I0909 05:59:55.684672 2482359 net.cpp:165] Memory required for data: 1403486236
I0909 05:59:55.684675 2482359 layer_factory.hpp:77] Creating layer conv5_2
I0909 05:59:55.684684 2482359 net.cpp:106] Creating Layer conv5_2
I0909 05:59:55.684687 2482359 net.cpp:454] conv5_2 <- conv5_1
I0909 05:59:55.684691 2482359 net.cpp:411] conv5_2 -> conv5_2
I0909 05:59:55.689920 2482359 net.cpp:150] Setting up conv5_2
I0909 05:59:55.689951 2482359 net.cpp:157] Top shape: 1 512 38 64 (1245184)
I0909 05:59:55.689954 2482359 net.cpp:165] Memory required for data: 1408466972
I0909 05:59:55.689961 2482359 layer_factory.hpp:77] Creating layer relu5_2
I0909 05:59:55.689968 2482359 net.cpp:106] Creating Layer relu5_2
I0909 05:59:55.689972 2482359 net.cpp:454] relu5_2 <- conv5_2
I0909 05:59:55.689978 2482359 net.cpp:397] relu5_2 -> conv5_2 (in-place)
I0909 05:59:55.689985 2482359 net.cpp:150] Setting up relu5_2
I0909 05:59:55.689990 2482359 net.cpp:157] Top shape: 1 512 38 64 (1245184)
I0909 05:59:55.689992 2482359 net.cpp:165] Memory required for data: 1413447708
I0909 05:59:55.689996 2482359 layer_factory.hpp:77] Creating layer conv5_3
I0909 05:59:55.690001 2482359 net.cpp:106] Creating Layer conv5_3
I0909 05:59:55.690004 2482359 net.cpp:454] conv5_3 <- conv5_2
I0909 05:59:55.690011 2482359 net.cpp:411] conv5_3 -> conv5_3
I0909 05:59:55.695228 2482359 net.cpp:150] Setting up conv5_3
I0909 05:59:55.695258 2482359 net.cpp:157] Top shape: 1 512 38 64 (1245184)
I0909 05:59:55.695262 2482359 net.cpp:165] Memory required for data: 1418428444
I0909 05:59:55.695269 2482359 layer_factory.hpp:77] Creating layer relu5_3
I0909 05:59:55.695278 2482359 net.cpp:106] Creating Layer relu5_3
I0909 05:59:55.695282 2482359 net.cpp:454] relu5_3 <- conv5_3
I0909 05:59:55.695287 2482359 net.cpp:397] relu5_3 -> conv5_3 (in-place)
I0909 05:59:55.695293 2482359 net.cpp:150] Setting up relu5_3
I0909 05:59:55.695298 2482359 net.cpp:157] Top shape: 1 512 38 64 (1245184)
I0909 05:59:55.695302 2482359 net.cpp:165] Memory required for data: 1423409180
I0909 05:59:55.695304 2482359 layer_factory.hpp:77] Creating layer rpn_conv/3x3
I0909 05:59:55.695320 2482359 net.cpp:106] Creating Layer rpn_conv/3x3
I0909 05:59:55.695327 2482359 net.cpp:454] rpn_conv/3x3 <- conv5_3
I0909 05:59:55.695334 2482359 net.cpp:411] rpn_conv/3x3 -> rpn/output
I0909 05:59:55.766119 2482359 net.cpp:150] Setting up rpn_conv/3x3
I0909 05:59:55.766151 2482359 net.cpp:157] Top shape: 1 512 38 64 (1245184)
I0909 05:59:55.766156 2482359 net.cpp:165] Memory required for data: 1428389916
I0909 05:59:55.766163 2482359 layer_factory.hpp:77] Creating layer rpn_relu/3x3
I0909 05:59:55.766170 2482359 net.cpp:106] Creating Layer rpn_relu/3x3
I0909 05:59:55.766175 2482359 net.cpp:454] rpn_relu/3x3 <- rpn/output
I0909 05:59:55.766181 2482359 net.cpp:397] rpn_relu/3x3 -> rpn/output (in-place)
I0909 05:59:55.766187 2482359 net.cpp:150] Setting up rpn_relu/3x3
I0909 05:59:55.766191 2482359 net.cpp:157] Top shape: 1 512 38 64 (1245184)
I0909 05:59:55.766194 2482359 net.cpp:165] Memory required for data: 1433370652
I0909 05:59:55.766197 2482359 layer_factory.hpp:77] Creating layer rpn/output_rpn_relu/3x3_0_split
I0909 05:59:55.766203 2482359 net.cpp:106] Creating Layer rpn/output_rpn_relu/3x3_0_split
I0909 05:59:55.766206 2482359 net.cpp:454] rpn/output_rpn_relu/3x3_0_split <- rpn/output
I0909 05:59:55.766212 2482359 net.cpp:411] rpn/output_rpn_relu/3x3_0_split -> rpn/output_rpn_relu/3x3_0_split_0
I0909 05:59:55.766218 2482359 net.cpp:411] rpn/output_rpn_relu/3x3_0_split -> rpn/output_rpn_relu/3x3_0_split_1
I0909 05:59:55.766268 2482359 net.cpp:150] Setting up rpn/output_rpn_relu/3x3_0_split
I0909 05:59:55.766275 2482359 net.cpp:157] Top shape: 1 512 38 64 (1245184)
I0909 05:59:55.766280 2482359 net.cpp:157] Top shape: 1 512 38 64 (1245184)
I0909 05:59:55.766283 2482359 net.cpp:165] Memory required for data: 1443332124
I0909 05:59:55.766286 2482359 layer_factory.hpp:77] Creating layer rpn_cls_score
I0909 05:59:55.766297 2482359 net.cpp:106] Creating Layer rpn_cls_score
I0909 05:59:55.766304 2482359 net.cpp:454] rpn_cls_score <- rpn/output_rpn_relu/3x3_0_split_0
I0909 05:59:55.766309 2482359 net.cpp:411] rpn_cls_score -> rpn_cls_score
I0909 05:59:55.766937 2482359 net.cpp:150] Setting up rpn_cls_score
I0909 05:59:55.766947 2482359 net.cpp:157] Top shape: 1 18 38 64 (43776)
I0909 05:59:55.766962 2482359 net.cpp:165] Memory required for data: 1443507228
I0909 05:59:55.766968 2482359 layer_factory.hpp:77] Creating layer rpn_cls_score_rpn_cls_score_0_split
I0909 05:59:55.766973 2482359 net.cpp:106] Creating Layer rpn_cls_score_rpn_cls_score_0_split
I0909 05:59:55.766976 2482359 net.cpp:454] rpn_cls_score_rpn_cls_score_0_split <- rpn_cls_score
I0909 05:59:55.766983 2482359 net.cpp:411] rpn_cls_score_rpn_cls_score_0_split -> rpn_cls_score_rpn_cls_score_0_split_0
I0909 05:59:55.766989 2482359 net.cpp:411] rpn_cls_score_rpn_cls_score_0_split -> rpn_cls_score_rpn_cls_score_0_split_1
I0909 05:59:55.767036 2482359 net.cpp:150] Setting up rpn_cls_score_rpn_cls_score_0_split
I0909 05:59:55.767045 2482359 net.cpp:157] Top shape: 1 18 38 64 (43776)
I0909 05:59:55.767048 2482359 net.cpp:157] Top shape: 1 18 38 64 (43776)
I0909 05:59:55.767051 2482359 net.cpp:165] Memory required for data: 1443857436
I0909 05:59:55.767055 2482359 layer_factory.hpp:77] Creating layer rpn_bbox_pred
I0909 05:59:55.767063 2482359 net.cpp:106] Creating Layer rpn_bbox_pred
I0909 05:59:55.767071 2482359 net.cpp:454] rpn_bbox_pred <- rpn/output_rpn_relu/3x3_0_split_1
I0909 05:59:55.767078 2482359 net.cpp:411] rpn_bbox_pred -> rpn_bbox_pred
I0909 05:59:55.767946 2482359 net.cpp:150] Setting up rpn_bbox_pred
I0909 05:59:55.767954 2482359 net.cpp:157] Top shape: 1 36 38 64 (87552)
I0909 05:59:55.767968 2482359 net.cpp:165] Memory required for data: 1444207644
I0909 05:59:55.767974 2482359 layer_factory.hpp:77] Creating layer rpn_cls_score_reshape
I0909 05:59:55.767992 2482359 net.cpp:106] Creating Layer rpn_cls_score_reshape
I0909 05:59:55.767997 2482359 net.cpp:454] rpn_cls_score_reshape <- rpn_cls_score_rpn_cls_score_0_split_0
I0909 05:59:55.768002 2482359 net.cpp:411] rpn_cls_score_reshape -> rpn_cls_score_reshape
I0909 05:59:55.768036 2482359 net.cpp:150] Setting up rpn_cls_score_reshape
I0909 05:59:55.768044 2482359 net.cpp:157] Top shape: 1 2 342 64 (43776)
I0909 05:59:55.768048 2482359 net.cpp:165] Memory required for data: 1444382748
I0909 05:59:55.768050 2482359 layer_factory.hpp:77] Creating layer rpn-data
I0909 05:59:55.768894 2482359 net.cpp:106] Creating Layer rpn-data
I0909 05:59:55.768908 2482359 net.cpp:454] rpn-data <- rpn_cls_score_rpn_cls_score_0_split_1
I0909 05:59:55.768924 2482359 net.cpp:454] rpn-data <- gt_boxes
I0909 05:59:55.768929 2482359 net.cpp:454] rpn-data <- im_info
I0909 05:59:55.768932 2482359 net.cpp:454] rpn-data <- data_input-data_0_split_1
I0909 05:59:55.768937 2482359 net.cpp:411] rpn-data -> rpn_labels
I0909 05:59:55.768945 2482359 net.cpp:411] rpn-data -> rpn_bbox_targets
I0909 05:59:55.768951 2482359 net.cpp:411] rpn-data -> rpn_bbox_inside_weights
I0909 05:59:55.768961 2482359 net.cpp:411] rpn-data -> rpn_bbox_outside_weights
I0909 05:59:55.769820 2482359 net.cpp:150] Setting up rpn-data
I0909 05:59:55.769847 2482359 net.cpp:157] Top shape: 1 1 342 64 (21888)
I0909 05:59:55.769852 2482359 net.cpp:157] Top shape: 1 36 38 64 (87552)
I0909 05:59:55.769856 2482359 net.cpp:157] Top shape: 1 36 38 64 (87552)
I0909 05:59:55.769860 2482359 net.cpp:157] Top shape: 1 36 38 64 (87552)
I0909 05:59:55.769863 2482359 net.cpp:165] Memory required for data: 1445520924
I0909 05:59:55.769867 2482359 layer_factory.hpp:77] Creating layer rpn_loss_cls
I0909 05:59:55.769881 2482359 net.cpp:106] Creating Layer rpn_loss_cls
I0909 05:59:55.769884 2482359 net.cpp:454] rpn_loss_cls <- rpn_cls_score_reshape
I0909 05:59:55.769889 2482359 net.cpp:454] rpn_loss_cls <- rpn_labels
I0909 05:59:55.769896 2482359 net.cpp:411] rpn_loss_cls -> rpn_cls_loss
…
I0909 05:59:55.770730 2482359 net.cpp:150] Setting up rpn_loss_bbox
I0909 05:59:55.770737 2482359 net.cpp:157] Top shape: (1)
I0909 05:59:55.770752 2482359 net.cpp:160]     with loss weight 1
I0909 05:59:55.770757 2482359 net.cpp:165] Memory required for data: 1445520932
I0909 05:59:55.770761 2482359 layer_factory.hpp:77] Creating layer dummy_roi_pool_conv5
I0909 05:59:55.770771 2482359 net.cpp:106] Creating Layer dummy_roi_pool_conv5
I0909 05:59:55.770774 2482359 net.cpp:411] dummy_roi_pool_conv5 -> dummy_roi_pool_conv5
I0909 05:59:55.771473 2482359 net.cpp:150] Setting up dummy_roi_pool_conv5
I0909 05:59:55.771498 2482359 net.cpp:157] Top shape: 1 25088 (25088)
I0909 05:59:55.771502 2482359 net.cpp:165] Memory required for data: 1445621284
I0909 05:59:55.771505 2482359 layer_factory.hpp:77] Creating layer fc6
I0909 05:59:55.771513 2482359 net.cpp:106] Creating Layer fc6
I0909 05:59:55.771517 2482359 net.cpp:454] fc6 <- dummy_roi_pool_conv5
I0909 05:59:55.771525 2482359 net.cpp:411] fc6 -> fc6
I0909 05:59:56.003903 2482359 net.cpp:150] Setting up fc6
I0909 05:59:56.003967 2482359 net.cpp:157] Top shape: 1 4096 (4096)
I0909 05:59:56.003971 2482359 net.cpp:165] Memory required for data: 1445637668
I0909 05:59:56.003994 2482359 layer_factory.hpp:77] Creating layer relu6
I0909 05:59:56.004007 2482359 net.cpp:106] Creating Layer relu6
I0909 05:59:56.004012 2482359 net.cpp:454] relu6 <- fc6
I0909 05:59:56.004019 2482359 net.cpp:397] relu6 -> fc6 (in-place)
I0909 05:59:56.004029 2482359 net.cpp:150] Setting up relu6
I0909 05:59:56.004043 2482359 net.cpp:157] Top shape: 1 4096 (4096)
I0909 05:59:56.004046 2482359 net.cpp:165] Memory required for data: 1445654052
I0909 05:59:56.004050 2482359 layer_factory.hpp:77] Creating layer drop6
I0909 05:59:56.004066 2482359 net.cpp:106] Creating Layer drop6
I0909 05:59:56.004071 2482359 net.cpp:454] drop6 <- fc6
I0909 05:59:56.004076 2482359 net.cpp:397] drop6 -> fc6 (in-place)
I0909 05:59:56.004109 2482359 net.cpp:150] Setting up drop6
I0909 05:59:56.004117 2482359 net.cpp:157] Top shape: 1 4096 (4096)
I0909 05:59:56.004120 2482359 net.cpp:165] Memory required for data: 1445670436
I0909 05:59:56.004123 2482359 layer_factory.hpp:77] Creating layer fc7
I0909 05:59:56.004130 2482359 net.cpp:106] Creating Layer fc7
I0909 05:59:56.004134 2482359 net.cpp:454] fc7 <- fc6
I0909 05:59:56.004142 2482359 net.cpp:411] fc7 -> fc7
I0909 05:59:56.044746 2482359 net.cpp:150] Setting up fc7
I0909 05:59:56.044809 2482359 net.cpp:157] Top shape: 1 4096 (4096)
I0909 05:59:56.044814 2482359 net.cpp:165] Memory required for data: 1445686820
I0909 05:59:56.044831 2482359 layer_factory.hpp:77] Creating layer silence_fc7
I0909 05:59:56.044845 2482359 net.cpp:106] Creating Layer silence_fc7
I0909 05:59:56.044854 2482359 net.cpp:454] silence_fc7 <- fc7
I0909 05:59:56.044862 2482359 net.cpp:150] Setting up silence_fc7
I0909 05:59:56.044865 2482359 net.cpp:165] Memory required for data: 1445686820
…
           'SCALES': [600],
           'SNAPSHOT_INFIX': 'stage1',
           'SNAPSHOT_ITERS': 10000,
           'USE_FLIPPED': True,
           'USE_PREFETCH': False},
 'USE_GPU_NMS': True}
Loaded dataset `widerface_2016_train` for proposal generation
WARNING: Logging before InitGoogleLogging() is written to STDERR
I0909 17:24:05.926121 3338456 net.cpp:49] Initializing net from parameters: 
name: "VGG_ILSVRC_16_layers"
input: "data"
input: "im_info"
state {
  phase: TEST
}
input_shape {
  dim: 1
  dim: 3
  dim: 224
  dim: 224
}
input_shape {
  dim: 1
  dim: 3
}
layer {
  name: "conv1_1"
  type: "Convolution"
  bottom: "data"
  top: "conv1_1"
  convolution_param {
    num_output: 64
    pad: 1
    kernel_size: 3
  }
}
layer {
  name: "relu1_1"
  type: "ReLU"
  bottom: "conv1_1"
  top: "conv1_1"
}
layer {
  name: "conv1_2"
  type: "Convolution"
  bottom: "conv1_1"
  top: "conv1_2"
  convolution_param {
    num_output: 64
    pad: 1
    kernel_size: 3
  }
}
layer {
  name: "relu1_2"
  type: "ReLU"
  bottom: "conv1_2"
  top: "conv1_2"
}
layer {
  name: "pool1"
  type: "Pooling"
  bottom: "conv1_2"
  top: "pool1"
  pooling_param {
    pool: MAX
    kernel_size: 2
    stride: 2
  }
}
layer {
  name: "conv2_1"
  type: "Convolution"
  bottom: "pool1"
  top: "conv2_1"
  convolution_param {
    num_output: 128
    pad: 1
    kernel_size: 3
  }
}
layer {
  name: "relu2_1"
  type: "ReLU"
  bottom: "conv2_1"
  top: "conv2_1"
}
layer {
  name: "conv2_2"
  type: "Convolution"
  bottom: "conv2_1"
  top: "conv2_2"
  convolution_param {
    num_output: 128
    pad: 1
    kernel_size: 3
  }
}
layer {
  name: "relu2_2"
  type: "ReLU"
  bottom: "conv2_2"
  top: "conv2_2"
}
layer {
  name: "pool2"
  type: "Pooling"
  bottom: "conv2_2"
  top: "pool2"
  pooling_param {
    pool: MAX
    kernel_size: 2
    stride: 2
  }
}
layer {
  name: "conv3_1"
  type: "Convolution"
  bottom: "pool2"
  top: "conv3_1"
  convolution_param {
    num_output: 256
    pad: 1
    kernel_size: 3
  }
}
layer {
  name: "relu3_1"
  type: "ReLU"
  bottom: "conv3_1"
  top: "conv3_1"
}
layer {
  name: "conv3_2"
  type: "Convolution"
  bottom: "conv3_1"
  top: "conv3_2"
  convolution_param {
    num_output: 256
    pad: 1
    kernel_size: 3
  }
}
layer {
  name: "relu3_2"
  type: "ReLU"
  bottom: "conv3_2"
  top: "conv3_2"
}
layer {
  name: "conv3_3"
  type: "Convolution"
  bottom: "conv3_2"
  top: "conv3_3"
  convolution_param {
    num_output: 256
    pad: 1
    kernel_size: 3
  }
}
layer {
  name: "relu3_3"
  type: "ReLU"
  bottom: "conv3_3"
  top: "conv3_3"
}
layer {
  name: "pool3"
  type: "Pooling"
  bottom: "conv3_3"
  top: "pool3"
  pooling_param {
    pool: MAX
    kernel_size: 2
    stride: 2
  }
}
layer {
  name: "conv4_1"
  type: "Convolution"
  bottom: "pool3"
  top: "conv4_1"
  convolution_param {
    num_output: 512
    pad: 1
    kernel_size: 3
  }
}
layer {
  name: "relu4_1"
  type: "ReLU"
  bottom: "conv4_1"
  top: "conv4_1"
}
layer {
  name: "conv4_2"
  type: "Convolution"
  bottom: "conv4_1"
  top: "conv4_2"
  convolution_param {
    num_output: 512
    pad: 1
    kernel_size: 3
  }
}
layer {
  name: "relu4_2"
  type: "ReLU"
  bottom: "conv4_2"
  top: "conv4_2"
}
layer {
  name: "conv4_3"
  type: "Convolution"
  bottom: "conv4_2"
  top: "conv4_3"
  convolution_param {
    num_output: 512
    pad: 1
    kernel_size: 3
  }
}
layer {
  name: "relu4_3"
  type: "ReLU"
  bottom: "conv4_3"
  top: "conv4_3"
}
layer {
  name: "pool4"
  type: "Pooling"
  bottom: "conv4_3"
  top: "pool4"
  pooling_param {
    pool: MAX
    kernel_size: 2
    stride: 2
  }
}
layer {
  name: "conv5_1"
  type: "Convolution"
  bottom: "pool4"
  top: "conv5_1"
  convolution_param {
    num_output: 512
    pad: 1
    kernel_size: 3
  }
}
layer {
  name: "relu5_1"
  type: "ReLU"
  bottom: "conv5_1"
  top: "conv5_1"
}
layer {
  name: "conv5_2"
  type: "Convolution"
  bottom: "conv5_1"
  top: "conv5_2"
  convolution_param {
    num_output: 512
    pad: 1
    kernel_size: 3
  }
}
layer {
  name: "relu5_2"
  type: "ReLU"
  bottom: "conv5_2"
  top: "conv5_2"
}
layer {
  name: "conv5_3"
  type: "Convolution"
  bottom: "conv5_2"
  top: "conv5_3"
  convolution_param {
    num_output: 512
    pad: 1
    kernel_size: 3
  }
}
layer {
  name: "relu5_3"
  type: "ReLU"
  bottom: "conv5_3"
  top: "conv5_3"
}
layer {
  name: "rpn_conv/3x3"
  type: "Convolution"
  bottom: "conv5_3"
  top: "rpn/output"
  convolution_param {
    num_output: 512
    pad: 1
    kernel_size: 3
    stride: 1
  }
}
layer {
  name: "rpn_relu/3x3"
  type: "ReLU"
  bottom: "rpn/output"
  top: "rpn/output"
}
layer {
  name: "rpn_cls_score"
  type: "Convolution"
  bottom: "rpn/output"
  top: "rpn_cls_score"
  convolution_param {
    num_output: 18
    pad: 0
    kernel_size: 1
    stride: 1
  }
}
layer {
  name: "rpn_bbox_pred"
  type: "Convolution"
  bottom: "rpn/output"
  top: "rpn_bbox_pred"
  convolution_param {
    num_output: 36
    pad: 0
    kernel_size: 1
    stride: 1
  }
}
layer {
  name: "rpn_cls_score_reshape"
  type: "Reshape"
  bottom: "rpn_cls_score"
  top: "rpn_cls_score_reshape"
  reshape_param {
    shape {
      dim: 0
      dim: 2
      dim: -1
      dim: 0
    }
  }
}
layer {
  name: "rpn_cls_prob"
  type: "Softmax"
  bottom: "rpn_cls_score_reshape"
  top: "rpn_cls_prob"
}
layer {
  name: "rpn_cls_prob_reshape"
  type: "Reshape"
  bottom: "rpn_cls_prob"
  top: "rpn_cls_prob_reshape"
  reshape_param {
    shape {
      dim: 0
      dim: 18
      dim: -1
      dim: 0
    }
  }
}
layer {
  name: "proposal"
  type: "Python"
  bottom: "rpn_cls_prob_reshape"
  bottom: "rpn_bbox_pred"
  bottom: "im_info"
  top: "rois"
  top: "scores"
  python_param {
    module: "rpn.proposal_layer"
    layer: "ProposalLayer"
    param_str: "\'feat_stride\': 16"
  }
}
I0909 17:24:05.926285 3338456 net.cpp:413] Input 0 -> data
I0909 17:24:05.936784 3338456 net.cpp:413] Input 1 -> im_info
I0909 17:24:05.936851 3338456 layer_factory.hpp:77] Creating layer conv1_1
I0909 17:24:05.936872 3338456 net.cpp:106] Creating Layer conv1_1
I0909 17:24:05.936879 3338456 net.cpp:454] conv1_1 <- data
I0909 17:24:05.936887 3338456 net.cpp:411] conv1_1 -> conv1_1
I0909 17:24:05.938745 3338456 net.cpp:150] Setting up conv1_1
I0909 17:24:05.938769 3338456 net.cpp:157] Top shape: 1 64 224 224 (3211264)
I0909 17:24:05.938774 3338456 net.cpp:165] Memory required for data: 12845056
I0909 17:24:05.938791 3338456 layer_factory.hpp:77] Creating layer relu1_1
I0909 17:24:05.938799 3338456 net.cpp:106] Creating Layer relu1_1
I0909 17:24:05.938803 3338456 net.cpp:454] relu1_1 <- conv1_1
I0909 17:24:05.938809 3338456 net.cpp:397] relu1_1 -> conv1_1 (in-place)
I0909 17:24:05.938822 3338456 net.cpp:150] Setting up relu1_1
I0909 17:24:05.938830 3338456 net.cpp:157] Top shape: 1 64 224 224 (3211264)
I0909 17:24:05.938834 3338456 net.cpp:165] Memory required for data: 25690112
I0909 17:24:05.938838 3338456 layer_factory.hpp:77] Creating layer conv1_2
I0909 17:24:05.938848 3338456 net.cpp:106] Creating Layer conv1_2
I0909 17:24:05.938853 3338456 net.cpp:454] conv1_2 <- conv1_1
I0909 17:24:05.938859 3338456 net.cpp:411] conv1_2 -> conv1_2
I0909 17:24:05.939275 3338456 net.cpp:150] Setting up conv1_2
I0909 17:24:05.939287 3338456 net.cpp:157] Top shape: 1 64 224 224 (3211264)
I0909 17:24:05.939291 3338456 net.cpp:165] Memory required for data: 38535168
I0909 17:24:05.939301 3338456 layer_factory.hpp:77] Creating layer relu1_2
I0909 17:24:05.939308 3338456 net.cpp:106] Creating Layer relu1_2
I0909 17:24:05.939313 3338456 net.cpp:454] relu1_2 <- conv1_2
I0909 17:24:05.939319 3338456 net.cpp:397] relu1_2 -> conv1_2 (in-place)
I0909 17:24:05.939326 3338456 net.cpp:150] Setting up relu1_2
I0909 17:24:05.939330 3338456 net.cpp:157] Top shape: 1 64 224 224 (3211264)
I0909 17:24:05.939333 3338456 net.cpp:165] Memory required for data: 51380224
I0909 17:24:05.939337 3338456 layer_factory.hpp:77] Creating layer pool1
I0909 17:24:05.939343 3338456 net.cpp:106] Creating Layer pool1
I0909 17:24:05.939347 3338456 net.cpp:454] pool1 <- conv1_2
I0909 17:24:05.939357 3338456 net.cpp:411] pool1 -> pool1
I0909 17:24:05.939431 3338456 net.cpp:150] Setting up pool1
I0909 17:24:05.939441 3338456 net.cpp:157] Top shape: 1 64 112 112 (802816)
I0909 17:24:05.939445 3338456 net.cpp:165] Memory required for data: 54591488
I0909 17:24:05.939448 3338456 layer_factory.hpp:77] Creating layer conv2_1
I0909 17:24:05.939455 3338456 net.cpp:106] Creating Layer conv2_1
I0909 17:24:05.939460 3338456 net.cpp:454] conv2_1 <- pool1
I0909 17:24:05.939467 3338456 net.cpp:411] conv2_1 -> conv2_1
I0909 17:24:05.941344 3338456 net.cpp:150] Setting up conv2_1
I0909 17:24:05.941362 3338456 net.cpp:157] Top shape: 1 128 112 112 (1605632)
I0909 17:24:05.941366 3338456 net.cpp:165] Memory required for data: 61014016
I0909 17:24:05.941377 3338456 layer_factory.hpp:77] Creating layer relu2_1
I0909 17:24:05.941385 3338456 net.cpp:106] Creating Layer relu2_1
I0909 17:24:05.941390 3338456 net.cpp:454] relu2_1 <- conv2_1
I0909 17:24:05.941397 3338456 net.cpp:397] relu2_1 -> conv2_1 (in-place)
I0909 17:24:05.941406 3338456 net.cpp:150] Setting up relu2_1
I0909 17:24:05.941411 3338456 net.cpp:157] Top shape: 1 128 112 112 (1605632)
I0909 17:24:05.941414 3338456 net.cpp:165] Memory required for data: 67436544
I0909 17:24:05.941417 3338456 layer_factory.hpp:77] Creating layer conv2_2
I0909 17:24:05.941424 3338456 net.cpp:106] Creating Layer conv2_2
I0909 17:24:05.941428 3338456 net.cpp:454] conv2_2 <- conv2_1
I0909 17:24:05.941436 3338456 net.cpp:411] conv2_2 -> conv2_2
I0909 17:24:05.941901 3338456 net.cpp:150] Setting up conv2_2
I0909 17:24:05.941915 3338456 net.cpp:157] Top shape: 1 128 112 112 (1605632)
I0909 17:24:05.941918 3338456 net.cpp:165] Memory required for data: 73859072
I0909 17:24:05.941926 3338456 layer_factory.hpp:77] Creating layer relu2_2
I0909 17:24:05.941934 3338456 net.cpp:106] Creating Layer relu2_2
I0909 17:24:05.941938 3338456 net.cpp:454] relu2_2 <- conv2_2
I0909 17:24:05.941943 3338456 net.cpp:397] relu2_2 -> conv2_2 (in-place)
I0909 17:24:05.941949 3338456 net.cpp:150] Setting up relu2_2
I0909 17:24:05.941956 3338456 net.cpp:157] Top shape: 1 128 112 112 (1605632)
I0909 17:24:05.941958 3338456 net.cpp:165] Memory required for data: 80281600
I0909 17:24:05.941963 3338456 layer_factory.hpp:77] Creating layer pool2
I0909 17:24:05.941968 3338456 net.cpp:106] Creating Layer pool2
I0909 17:24:05.941972 3338456 net.cpp:454] pool2 <- conv2_2
I0909 17:24:05.941978 3338456 net.cpp:411] pool2 -> pool2
I0909 17:24:05.942034 3338456 net.cpp:150] Setting up pool2
I0909 17:24:05.942044 3338456 net.cpp:157] Top shape: 1 128 56 56 (401408)
I0909 17:24:05.942047 3338456 net.cpp:165] Memory required for data: 81887232
I0909 17:24:05.942051 3338456 layer_factory.hpp:77] Creating layer conv3_1
I0909 17:24:05.942059 3338456 net.cpp:106] Creating Layer conv3_1
I0909 17:24:05.942061 3338456 net.cpp:454] conv3_1 <- pool2
I0909 17:24:05.942071 3338456 net.cpp:411] conv3_1 -> conv3_1
I0909 17:24:05.943434 3338456 net.cpp:150] Setting up conv3_1
I0909 17:24:05.943450 3338456 net.cpp:157] Top shape: 1 256 56 56 (802816)
I0909 17:24:05.943454 3338456 net.cpp:165] Memory required for data: 85098496
I0909 17:24:05.943467 3338456 layer_factory.hpp:77] Creating layer relu3_1
I0909 17:24:05.943475 3338456 net.cpp:106] Creating Layer relu3_1
I0909 17:24:05.943480 3338456 net.cpp:454] relu3_1 <- conv3_1
I0909 17:24:05.943485 3338456 net.cpp:397] relu3_1 -> conv3_1 (in-place)
I0909 17:24:05.943495 3338456 net.cpp:150] Setting up relu3_1
I0909 17:24:05.943500 3338456 net.cpp:157] Top shape: 1 256 56 56 (802816)
I0909 17:24:05.943503 3338456 net.cpp:165] Memory required for data: 88309760
I0909 17:24:05.943507 3338456 layer_factory.hpp:77] Creating layer conv3_2
I0909 17:24:05.943514 3338456 net.cpp:106] Creating Layer conv3_2
I0909 17:24:05.943518 3338456 net.cpp:454] conv3_2 <- conv3_1
I0909 17:24:05.943523 3338456 net.cpp:411] conv3_2 -> conv3_2
I0909 17:24:05.945613 3338456 net.cpp:150] Setting up conv3_2
I0909 17:24:05.945633 3338456 net.cpp:157] Top shape: 1 256 56 56 (802816)
I0909 17:24:05.945638 3338456 net.cpp:165] Memory required for data: 91521024
I0909 17:24:05.945646 3338456 layer_factory.hpp:77] Creating layer relu3_2
I0909 17:24:05.945652 3338456 net.cpp:106] Creating Layer relu3_2
I0909 17:24:05.945657 3338456 net.cpp:454] relu3_2 <- conv3_2
I0909 17:24:05.945662 3338456 net.cpp:397] relu3_2 -> conv3_2 (in-place)
I0909 17:24:05.945669 3338456 net.cpp:150] Setting up relu3_2
I0909 17:24:05.945674 3338456 net.cpp:157] Top shape: 1 256 56 56 (802816)
I0909 17:24:05.945677 3338456 net.cpp:165] Memory required for data: 94732288
I0909 17:24:05.945682 3338456 layer_factory.hpp:77] Creating layer conv3_3
I0909 17:24:05.945690 3338456 net.cpp:106] Creating Layer conv3_3
I0909 17:24:05.945694 3338456 net.cpp:454] conv3_3 <- conv3_2
I0909 17:24:05.945699 3338456 net.cpp:411] conv3_3 -> conv3_3
I0909 17:24:05.947783 3338456 net.cpp:150] Setting up conv3_3
I0909 17:24:05.947800 3338456 net.cpp:157] Top shape: 1 256 56 56 (802816)
I0909 17:24:05.947805 3338456 net.cpp:165] Memory required for data: 97943552
I0909 17:24:05.947813 3338456 layer_factory.hpp:77] Creating layer relu3_3
I0909 17:24:05.947819 3338456 net.cpp:106] Creating Layer relu3_3
I0909 17:24:05.947824 3338456 net.cpp:454] relu3_3 <- conv3_3
I0909 17:24:05.947831 3338456 net.cpp:397] relu3_3 -> conv3_3 (in-place)
I0909 17:24:05.947839 3338456 net.cpp:150] Setting up relu3_3
I0909 17:24:05.947844 3338456 net.cpp:157] Top shape: 1 256 56 56 (802816)
I0909 17:24:05.947849 3338456 net.cpp:165] Memory required for data: 101154816
I0909 17:24:05.947851 3338456 layer_factory.hpp:77] Creating layer pool3
I0909 17:24:05.947861 3338456 net.cpp:106] Creating Layer pool3
I0909 17:24:05.947865 3338456 net.cpp:454] pool3 <- conv3_3
I0909 17:24:05.947870 3338456 net.cpp:411] pool3 -> pool3
I0909 17:24:05.947932 3338456 net.cpp:150] Setting up pool3
I0909 17:24:05.947942 3338456 net.cpp:157] Top shape: 1 256 28 28 (200704)
I0909 17:24:05.947945 3338456 net.cpp:165] Memory required for data: 101957632
I0909 17:24:05.947948 3338456 layer_factory.hpp:77] Creating layer conv4_1
I0909 17:24:05.947958 3338456 net.cpp:106] Creating Layer conv4_1
I0909 17:24:05.947965 3338456 net.cpp:454] conv4_1 <- pool3
I0909 17:24:05.947971 3338456 net.cpp:411] conv4_1 -> conv4_1
I0909 17:24:05.952220 3338456 net.cpp:150] Setting up conv4_1
I0909 17:24:05.952239 3338456 net.cpp:157] Top shape: 1 512 28 28 (401408)
I0909 17:24:05.952244 3338456 net.cpp:165] Memory required for data: 103563264
I0909 17:24:05.952251 3338456 layer_factory.hpp:77] Creating layer relu4_1
I0909 17:24:05.952258 3338456 net.cpp:106] Creating Layer relu4_1
I0909 17:24:05.952262 3338456 net.cpp:454] relu4_1 <- conv4_1
I0909 17:24:05.952268 3338456 net.cpp:397] relu4_1 -> conv4_1 (in-place)
I0909 17:24:05.952276 3338456 net.cpp:150] Setting up relu4_1
I0909 17:24:05.952281 3338456 net.cpp:157] Top shape: 1 512 28 28 (401408)
I0909 17:24:05.952285 3338456 net.cpp:165] Memory required for data: 105168896
I0909 17:24:05.952288 3338456 layer_factory.hpp:77] Creating layer conv4_2
I0909 17:24:05.952297 3338456 net.cpp:106] Creating Layer conv4_2
I0909 17:24:05.952302 3338456 net.cpp:454] conv4_2 <- conv4_1
I0909 17:24:05.952309 3338456 net.cpp:411] conv4_2 -> conv4_2
I0909 17:24:05.958848 3338456 net.cpp:150] Setting up conv4_2
I0909 17:24:05.958870 3338456 net.cpp:157] Top shape: 1 512 28 28 (401408)
I0909 17:24:05.958875 3338456 net.cpp:165] Memory required for data: 106774528
I0909 17:24:05.958890 3338456 layer_factory.hpp:77] Creating layer relu4_2
I0909 17:24:05.958899 3338456 net.cpp:106] Creating Layer relu4_2
I0909 17:24:05.958904 3338456 net.cpp:454] relu4_2 <- conv4_2
I0909 17:24:05.958909 3338456 net.cpp:397] relu4_2 -> conv4_2 (in-place)
I0909 17:24:05.958916 3338456 net.cpp:150] Setting up relu4_2
I0909 17:24:05.958922 3338456 net.cpp:157] Top shape: 1 512 28 28 (401408)
I0909 17:24:05.958926 3338456 net.cpp:165] Memory required for data: 108380160
I0909 17:24:05.958930 3338456 layer_factory.hpp:77] Creating layer conv4_3
I0909 17:24:05.958938 3338456 net.cpp:106] Creating Layer conv4_3
I0909 17:24:05.958943 3338456 net.cpp:454] conv4_3 <- conv4_2
I0909 17:24:05.958948 3338456 net.cpp:411] conv4_3 -> conv4_3
I0909 17:24:05.965821 3338456 net.cpp:150] Setting up conv4_3
I0909 17:24:05.965845 3338456 net.cpp:157] Top shape: 1 512 28 28 (401408)
I0909 17:24:05.965850 3338456 net.cpp:165] Memory required for data: 109985792
I0909 17:24:05.965859 3338456 layer_factory.hpp:77] Creating layer relu4_3
I0909 17:24:05.965867 3338456 net.cpp:106] Creating Layer relu4_3
I0909 17:24:05.965873 3338456 net.cpp:454] relu4_3 <- conv4_3
I0909 17:24:05.965880 3338456 net.cpp:397] relu4_3 -> conv4_3 (in-place)
I0909 17:24:05.965888 3338456 net.cpp:150] Setting up relu4_3
I0909 17:24:05.965893 3338456 net.cpp:157] Top shape: 1 512 28 28 (401408)
I0909 17:24:05.965898 3338456 net.cpp:165] Memory required for data: 111591424
I0909 17:24:05.965901 3338456 layer_factory.hpp:77] Creating layer pool4
I0909 17:24:05.965908 3338456 net.cpp:106] Creating Layer pool4
I0909 17:24:05.965911 3338456 net.cpp:454] pool4 <- conv4_3
I0909 17:24:05.965919 3338456 net.cpp:411] pool4 -> pool4
I0909 17:24:05.965979 3338456 net.cpp:150] Setting up pool4
I0909 17:24:05.965989 3338456 net.cpp:157] Top shape: 1 512 14 14 (100352)
I0909 17:24:05.965993 3338456 net.cpp:165] Memory required for data: 111992832
I0909 17:24:05.965997 3338456 layer_factory.hpp:77] Creating layer conv5_1
I0909 17:24:05.966006 3338456 net.cpp:106] Creating Layer conv5_1
I0909 17:24:05.966011 3338456 net.cpp:454] conv5_1 <- pool4
I0909 17:24:05.966017 3338456 net.cpp:411] conv5_1 -> conv5_1
I0909 17:24:05.972611 3338456 net.cpp:150] Setting up conv5_1
I0909 17:24:05.972632 3338456 net.cpp:157] Top shape: 1 512 14 14 (100352)
I0909 17:24:05.972636 3338456 net.cpp:165] Memory required for data: 112394240
I0909 17:24:05.972645 3338456 layer_factory.hpp:77] Creating layer relu5_1
I0909 17:24:05.972652 3338456 net.cpp:106] Creating Layer relu5_1
I0909 17:24:05.972657 3338456 net.cpp:454] relu5_1 <- conv5_1
I0909 17:24:05.972663 3338456 net.cpp:397] relu5_1 -> conv5_1 (in-place)
I0909 17:24:05.972671 3338456 net.cpp:150] Setting up relu5_1
I0909 17:24:05.972676 3338456 net.cpp:157] Top shape: 1 512 14 14 (100352)
I0909 17:24:05.972678 3338456 net.cpp:165] Memory required for data: 112795648
I0909 17:24:05.972682 3338456 layer_factory.hpp:77] Creating layer conv5_2
I0909 17:24:05.972693 3338456 net.cpp:106] Creating Layer conv5_2
I0909 17:24:05.972698 3338456 net.cpp:454] conv5_2 <- conv5_1
I0909 17:24:05.972705 3338456 net.cpp:411] conv5_2 -> conv5_2
I0909 17:24:05.979276 3338456 net.cpp:150] Setting up conv5_2
I0909 17:24:05.979298 3338456 net.cpp:157] Top shape: 1 512 14 14 (100352)
I0909 17:24:05.979302 3338456 net.cpp:165] Memory required for data: 113197056
I0909 17:24:05.979311 3338456 layer_factory.hpp:77] Creating layer relu5_2
I0909 17:24:05.979321 3338456 net.cpp:106] Creating Layer relu5_2
I0909 17:24:05.979326 3338456 net.cpp:454] relu5_2 <- conv5_2
I0909 17:24:05.979332 3338456 net.cpp:397] relu5_2 -> conv5_2 (in-place)
I0909 17:24:05.979341 3338456 net.cpp:150] Setting up relu5_2
I0909 17:24:05.979346 3338456 net.cpp:157] Top shape: 1 512 14 14 (100352)
I0909 17:24:05.979349 3338456 net.cpp:165] Memory required for data: 113598464
I0909 17:24:05.979353 3338456 layer_factory.hpp:77] Creating layer conv5_3
I0909 17:24:05.979362 3338456 net.cpp:106] Creating Layer conv5_3
I0909 17:24:05.979367 3338456 net.cpp:454] conv5_3 <- conv5_2
I0909 17:24:05.979372 3338456 net.cpp:411] conv5_3 -> conv5_3
I0909 17:24:05.985867 3338456 net.cpp:150] Setting up conv5_3
I0909 17:24:05.985890 3338456 net.cpp:157] Top shape: 1 512 14 14 (100352)
I0909 17:24:05.985895 3338456 net.cpp:165] Memory required for data: 113999872
I0909 17:24:05.985903 3338456 layer_factory.hpp:77] Creating layer relu5_3
I0909 17:24:05.985911 3338456 net.cpp:106] Creating Layer relu5_3
I0909 17:24:05.985918 3338456 net.cpp:454] relu5_3 <- conv5_3
I0909 17:24:05.985924 3338456 net.cpp:397] relu5_3 -> conv5_3 (in-place)
I0909 17:24:05.985931 3338456 net.cpp:150] Setting up relu5_3
I0909 17:24:05.985936 3338456 net.cpp:157] Top shape: 1 512 14 14 (100352)
I0909 17:24:05.985940 3338456 net.cpp:165] Memory required for data: 114401280
I0909 17:24:05.985944 3338456 layer_factory.hpp:77] Creating layer rpn_conv/3x3
I0909 17:24:05.985952 3338456 net.cpp:106] Creating Layer rpn_conv/3x3
I0909 17:24:05.985962 3338456 net.cpp:454] rpn_conv/3x3 <- conv5_3
I0909 17:24:05.985971 3338456 net.cpp:411] rpn_conv/3x3 -> rpn/output
I0909 17:24:05.992503 3338456 net.cpp:150] Setting up rpn_conv/3x3
I0909 17:24:05.992527 3338456 net.cpp:157] Top shape: 1 512 14 14 (100352)
I0909 17:24:05.992532 3338456 net.cpp:165] Memory required for data: 114802688
I0909 17:24:05.992540 3338456 layer_factory.hpp:77] Creating layer rpn_relu/3x3
I0909 17:24:05.992548 3338456 net.cpp:106] Creating Layer rpn_relu/3x3
I0909 17:24:05.992553 3338456 net.cpp:454] rpn_relu/3x3 <- rpn/output
I0909 17:24:05.992563 3338456 net.cpp:397] rpn_relu/3x3 -> rpn/output (in-place)
I0909 17:24:05.992570 3338456 net.cpp:150] Setting up rpn_relu/3x3
I0909 17:24:05.992575 3338456 net.cpp:157] Top shape: 1 512 14 14 (100352)
I0909 17:24:05.992578 3338456 net.cpp:165] Memory required for data: 115204096
I0909 17:24:05.992583 3338456 layer_factory.hpp:77] Creating layer rpn/output_rpn_relu/3x3_0_split
I0909 17:24:05.992595 3338456 net.cpp:106] Creating Layer rpn/output_rpn_relu/3x3_0_split
I0909 17:24:05.992604 3338456 net.cpp:454] rpn/output_rpn_relu/3x3_0_split <- rpn/output
I0909 17:24:05.992610 3338456 net.cpp:411] rpn/output_rpn_relu/3x3_0_split -> rpn/output_rpn_relu/3x3_0_split_0
I0909 17:24:05.992619 3338456 net.cpp:411] rpn/output_rpn_relu/3x3_0_split -> rpn/output_rpn_relu/3x3_0_split_1
I0909 17:24:05.992682 3338456 net.cpp:150] Setting up rpn/output_rpn_relu/3x3_0_split
I0909 17:24:05.992691 3338456 net.cpp:157] Top shape: 1 512 14 14 (100352)
I0909 17:24:05.992697 3338456 net.cpp:157] Top shape: 1 512 14 14 (100352)
I0909 17:24:05.992700 3338456 net.cpp:165] Memory required for data: 116006912
I0909 17:24:05.992704 3338456 layer_factory.hpp:77] Creating layer rpn_cls_score
I0909 17:24:05.992717 3338456 net.cpp:106] Creating Layer rpn_cls_score
I0909 17:24:05.992722 3338456 net.cpp:454] rpn_cls_score <- rpn/output_rpn_relu/3x3_0_split_0
I0909 17:24:05.992728 3338456 net.cpp:411] rpn_cls_score -> rpn_cls_score
I0909 17:24:05.993110 3338456 net.cpp:150] Setting up rpn_cls_score
I0909 17:24:05.993121 3338456 net.cpp:157] Top shape: 1 18 14 14 (3528)
I0909 17:24:05.993125 3338456 net.cpp:165] Memory required for data: 116021024
I0909 17:24:05.993132 3338456 layer_factory.hpp:77] Creating layer rpn_bbox_pred
I0909 17:24:05.993144 3338456 net.cpp:106] Creating Layer rpn_bbox_pred
I0909 17:24:05.993149 3338456 net.cpp:454] rpn_bbox_pred <- rpn/output_rpn_relu/3x3_0_split_1
I0909 17:24:05.993155 3338456 net.cpp:411] rpn_bbox_pred -> rpn_bbox_pred
I0909 17:24:05.993553 3338456 net.cpp:150] Setting up rpn_bbox_pred
I0909 17:24:05.993566 3338456 net.cpp:157] Top shape: 1 36 14 14 (7056)
I0909 17:24:05.993569 3338456 net.cpp:165] Memory required for data: 116049248
I0909 17:24:05.993577 3338456 layer_factory.hpp:77] Creating layer rpn_cls_score_reshape
I0909 17:24:05.993595 3338456 net.cpp:106] Creating Layer rpn_cls_score_reshape
I0909 17:24:05.993600 3338456 net.cpp:454] rpn_cls_score_reshape <- rpn_cls_score
I0909 17:24:05.993608 3338456 net.cpp:411] rpn_cls_score_reshape -> rpn_cls_score_reshape
I0909 17:24:05.993649 3338456 net.cpp:150] Setting up rpn_cls_score_reshape
I0909 17:24:05.993659 3338456 net.cpp:157] Top shape: 1 2 126 14 (3528)
I0909 17:24:05.993664 3338456 net.cpp:165] Memory required for data: 116063360
I0909 17:24:05.993669 3338456 layer_factory.hpp:77] Creating layer rpn_cls_prob
I0909 17:24:05.993674 3338456 net.cpp:106] Creating Layer rpn_cls_prob
I0909 17:24:05.993683 3338456 net.cpp:454] rpn_cls_prob <- rpn_cls_score_reshape
I0909 17:24:05.993690 3338456 net.cpp:411] rpn_cls_prob -> rpn_cls_prob
I0909 17:24:05.993787 3338456 net.cpp:150] Setting up rpn_cls_prob
I0909 17:24:05.993795 3338456 net.cpp:157] Top shape: 1 2 126 14 (3528)
I0909 17:24:05.993799 3338456 net.cpp:165] Memory required for data: 116077472
I0909 17:24:05.993803 3338456 layer_factory.hpp:77] Creating layer rpn_cls_prob_reshape
I0909 17:24:05.993809 3338456 net.cpp:106] Creating Layer rpn_cls_prob_reshape
I0909 17:24:05.993814 3338456 net.cpp:454] rpn_cls_prob_reshape <- rpn_cls_prob
I0909 17:24:05.993821 3338456 net.cpp:411] rpn_cls_prob_reshape -> rpn_cls_prob_reshape
I0909 17:24:05.993857 3338456 net.cpp:150] Setting up rpn_cls_prob_reshape
I0909 17:24:05.993867 3338456 net.cpp:157] Top shape: 1 18 14 14 (3528)
I0909 17:24:05.993871 3338456 net.cpp:165] Memory required for data: 116091584
I0909 17:24:05.993875 3338456 layer_factory.hpp:77] Creating layer proposal
I0909 17:24:05.995491 3338456 net.cpp:106] Creating Layer proposal
I0909 17:24:05.995508 3338456 net.cpp:454] proposal <- rpn_cls_prob_reshape
I0909 17:24:05.995515 3338456 net.cpp:454] proposal <- rpn_bbox_pred
I0909 17:24:05.995520 3338456 net.cpp:454] proposal <- im_info
I0909 17:24:05.995527 3338456 net.cpp:411] proposal -> rois
I0909 17:24:05.995535 3338456 net.cpp:411] proposal -> scores
I0909 17:24:05.996978 3338456 net.cpp:150] Setting up proposal
I0909 17:24:05.996999 3338456 net.cpp:157] Top shape: 1 5 (5)
I0909 17:24:05.997004 3338456 net.cpp:157] Top shape: 1 1 1 1 (1)
I0909 17:24:05.997007 3338456 net.cpp:165] Memory required for data: 116091608
I0909 17:24:05.997012 3338456 net.cpp:228] proposal does not need backward computation.
I0909 17:24:05.997017 3338456 net.cpp:228] rpn_cls_prob_reshape does not need backward computation.
I0909 17:24:05.997021 3338456 net.cpp:228] rpn_cls_prob does not need backward computation.
I0909 17:24:05.997025 3338456 net.cpp:228] rpn_cls_score_reshape does not need backward computation.
…
I0909 18:25:36.646790 3420873 solver.cpp:81] Creating training net from train_net file: models/pascal_voc/VGG16/faster_rcnn_alt_opt/stage1_fast_rcnn_train.pt
I0909 18:25:36.647876 3420873 net.cpp:49] Initializing net from parameters: 
name: "VGG_ILSVRC_16_layers"
state {
  phase: TRAIN
}
layer {
  name: "data"
  type: "Python"
  top: "data"
  top: "rois"
  top: "labels"
  top: "bbox_targets"
  top: "bbox_inside_weights"
  top: "bbox_outside_weights"
  python_param {
    module: "roi_data_layer.layer"
    layer: "RoIDataLayer"
    param_str: "\'num_classes\': 21"
  }
}
layer {
  name: "conv1_1"
  type: "Convolution"
  bottom: "data"
  top: "conv1_1"
  param {
    lr_mult: 0
    decay_mult: 0
  }
  param {
    lr_mult: 0
    decay_mult: 0
  }
  convolution_param {
    num_output: 64
    pad: 1
    kernel_size: 3
  }
}
layer {
  name: "relu1_1"
  type: "ReLU"
  bottom: "conv1_1"
  top: "conv1_1"
}
layer {
  name: "conv1_2"
  type: "Convolution"
  bottom: "conv1_1"
  top: "conv1_2"
  param {
    lr_mult: 0
    decay_mult: 0
  }
  param {
    lr_mult: 0
    decay_mult: 0
  }
  convolution_param {
    num_output: 64
    pad: 1
    kernel_size: 3
  }
}
layer {
  name: "relu1_2"
  type: "ReLU"
  bottom: "conv1_2"
  top: "conv1_2"
}
layer {
  name: "pool1"
  type: "Pooling"
  bottom: "conv1_2"
  top: "pool1"
  pooling_param {
    pool: MAX
    kernel_size: 2
    stride: 2
  }
}
layer {
  name: "conv2_1"
  type: "Convolution"
  bottom: "pool1"
  top: "conv2_1"
  param {
    lr_mult: 0
    decay_mult: 0
  }
  param {
    lr_mult: 0
    decay_mult: 0
  }
  convolution_param {
    num_output: 128
    pad: 1
    kernel_size: 3
  }
}
layer {
  name: "relu2_1"
  type: "ReLU"
  bottom: "conv2_1"
  top: "conv2_1"
}
layer {
  name: "conv2_2"
  type: "Convolution"
  bottom: "conv2_1"
  top: "conv2_2"
  param {
    lr_mult: 0
    decay_mult: 0
  }
  param {
    lr_mult: 0
    decay_mult: 0
  }
  convolution_param {
    num_output: 128
    pad: 1
    kernel_size: 3
  }
}
layer {
  name: "relu2_2"
  type: "ReLU"
  bottom: "conv2_2"
  top: "conv2_2"
}
layer {
  name: "pool2"
  type: "Pooling"
  bottom: "conv2_2"
  top: "pool2"
  pooling_param {
    pool: MAX
    kernel_size: 2
    stride: 2
  }
}
layer {
  name: "conv3_1"
  type: "Convolution"
  bottom: "pool2"
  top: "conv3_1"
  param {
    lr_mult: 1
  }
  param {
    lr_mult: 2
  }
  convolution_param {
    num_output: 256
    pad: 1
    kernel_size: 3
  }
}
layer {
  name: "relu3_1"
  type: "ReLU"
  bottom: "conv3_1"
  top: "conv3_1"
}
layer {
  name: "conv3_2"
  type: "Convolution"
  bottom: "conv3_1"
  top: "conv3_2"
  param {
    lr_mult: 1
  }
  param {
    lr_mult: 2
  }
  convolution_param {
    num_output: 256
    pad: 1
    kernel_size: 3
  }
}
layer {
  name: "relu3_2"
  type: "ReLU"
  bottom: "conv3_2"
  top: "conv3_2"
}
layer {
  name: "conv3_3"
  type: "Convolution"
  bottom: "conv3_2"
  top: "conv3_3"
  param {
    lr_mult: 1
  }
  param {
    lr_mult: 2
  }
  convolution_param {
    num_output: 256
    pad: 1
    kernel_size: 3
  }
}
layer {
  name: "relu3_3"
  type: "ReLU"
  bottom: "conv3_3"
  top: "conv3_3"
}
layer {
  name: "pool3"
  type: "Pooling"
  bottom: "conv3_3"
  top: "pool3"
  pooling_param {
    pool: MAX
    kernel_size: 2
    stride: 2
  }
}
layer {
  name: "conv4_1"
  type: "Convolution"
  bottom: "pool3"
  top: "conv4_1"
  param {
    lr_mult: 1
  }
  param {
    lr_mult: 2
  }
  convolution_param {
    num_output: 512
    pad: 1
    kernel_size: 3
  }
}
layer {
  name: "relu4_1"
  type: "ReLU"
  bottom: "conv4_1"
  top: "conv4_1"
}
layer {
  name: "conv4_2"
  type: "Convolution"
  bottom: "conv4_1"
  top: "conv4_2"
  param {
    lr_mult: 1
  }
  param {
    lr_mult: 2
  }
  convolution_param {
    num_output: 512
    pad: 1
    kernel_size: 3
  }
}
layer {
  name: "relu4_2"
  type: "ReLU"
  bottom: "conv4_2"
  top: "conv4_2"
}
layer {
  name: "conv4_3"
  type: "Convolution"
  bottom: "conv4_2"
  top: "conv4_3"
  param {
    lr_mult: 1
  }
  param {
    lr_mult: 2
  }
  convolution_param {
    num_output: 512
    pad: 1
    kernel_size: 3
  }
}
layer {
  name: "relu4_3"
  type: "ReLU"
  bottom: "conv4_3"
  top: "conv4_3"
}
layer {
  name: "pool4"
  type: "Pooling"
  bottom: "conv4_3"
  top: "pool4"
  pooling_param {
    pool: MAX
    kernel_size: 2
    stride: 2
  }
}
layer {
  name: "conv5_1"
  type: "Convolution"
  bottom: "pool4"
  top: "conv5_1"
  param {
    lr_mult: 1
  }
  param {
    lr_mult: 2
  }
  convolution_param {
    num_output: 512
    pad: 1
    kernel_size: 3
  }
}
layer {
  name: "relu5_1"
  type: "ReLU"
  bottom: "conv5_1"
  top: "conv5_1"
}
layer {
  name: "conv5_2"
  type: "Convolution"
  bottom: "conv5_1"
  top: "conv5_2"
  param {
    lr_mult: 1
  }
  param {
    lr_mult: 2
  }
  convolution_param {
    num_output: 512
    pad: 1
    kernel_size: 3
  }
}
layer {
  name: "relu5_2"
  type: "ReLU"
  bottom: "conv5_2"
  top: "conv5_2"
}
layer {
  name: "conv5_3"
  type: "Convolution"
  bottom: "conv5_2"
  top: "conv5_3"
  param {
    lr_mult: 1
  }
  param {
    lr_mult: 2
  }
  convolution_param {
    num_output: 512
    pad: 1
    kernel_size: 3
  }
}
layer {
  name: "relu5_3"
  type: "ReLU"
  bottom: "conv5_3"
  top: "conv5_3"
}
layer {
  name: "roi_pool5"
  type: "ROIPooling"
  bottom: "conv5_3"
  bottom: "rois"
  top: "pool5"
  roi_pooling_param {
    pooled_h: 7
    pooled_w: 7
    spatial_scale: 0.0625
  }
}
layer {
  name: "fc6"
  type: "InnerProduct"
  bottom: "pool5"
  top: "fc6"
  param {
    lr_mult: 1
  }
  param {
    lr_mult: 2
  }
  inner_product_param {
    num_output: 4096
  }
}
layer {
  name: "relu6"
  type: "ReLU"
  bottom: "fc6"
  top: "fc6"
}
layer {
  name: "drop6"
  type: "Dropout"
  bottom: "fc6"
  top: "fc6"
  dropout_param {
    dropout_ratio: 0.5
  }
}
layer {
  name: "fc7"
  type: "InnerProduct"
  bottom: "fc6"
  top: "fc7"
  param {
    lr_mult: 1
  }
  param {
    lr_mult: 2
  }
  inner_product_param {
    num_output: 4096
  }
}
layer {
  name: "relu7"
  type: "ReLU"
  bottom: "fc7"
  top: "fc7"
}
layer {
  name: "drop7"
  type: "Dropout"
  bottom: "fc7"
  top: "fc7"
  dropout_param {
    dropout_ratio: 0.5
  }
}
layer {
  name: "cls_score"
  type: "InnerProduct"
  bottom: "fc7"
  top: "cls_score"
  param {
    lr_mult: 1
  }
  param {
    lr_mult: 2
  }
  inner_product_param {
    num_output: 21
    weight_filler {
      type: "gaussian"
      std: 0.01
    }
    bias_filler {
      type: "constant"
      value: 0
    }
  }
}
layer {
  name: "bbox_pred"
  type: "InnerProduct"
  bottom: "fc7"
  top: "bbox_pred"
  param {
    lr_mult: 1
  }
  param {
    lr_mult: 2
  }
  inner_product_param {
    num_output: 84
    weight_filler {
      type: "gaussian"
      std: 0.001
    }
    bias_filler {
      type: "constant"
      value: 0
    }
  }
}
layer {
  name: "loss_cls"
  type: "SoftmaxWithLoss"
  bottom: "cls_score"
  bottom: "labels"
  top: "loss_cls"
  loss_weight: 1
}
layer {
  name: "loss_bbox"
  type: "SmoothL1Loss"
  bottom: "bbox_pred"
  bottom: "bbox_targets"
  bottom: "bbox_inside_weights"
  bottom: "bbox_outside_weights"
  top: "loss_bbox"
  loss_weight: 1
}
layer {
  name: "rpn_conv/3x3"
  type: "Convolution"
  bottom: "conv5_3"
  top: "rpn/output"
  param {
    lr_mult: 0
    decay_mult: 0
  }
  param {
    lr_mult: 0
    decay_mult: 0
  }
  convolution_param {
    num_output: 512
    pad: 1
    kernel_size: 3
    stride: 1
    weight_filler {
      type: "gaussian"
      std: 0.01
    }
    bias_filler {
      type: "constant"
      value: 0
    }
  }
}
layer {
  name: "rpn_relu/3x3"
  type: "ReLU"
  bottom: "rpn/output"
  top: "rpn/output"
}
layer {
  name: "rpn_cls_score"
  type: "Convolution"
  bottom: "rpn/output"
  top: "rpn_cls_score"
  param {
    lr_mult: 0
    decay_mult: 0
  }
  param {
    lr_mult: 0
    decay_mult: 0
  }
  convolution_param {
    num_output: 18
    pad: 0
    kernel_size: 1
    stride: 1
    weight_filler {
      type: "gaussian"
      std: 0.01
    }
    bias_filler {
      type: "constant"
      value: 0
    }
  }
}
layer {
  name: "rpn_bbox_pred"
  type: "Convolution"
  bottom: "rpn/output"
  top: "rpn_bbox_pred"
  param {
    lr_mult: 0
    decay_mult: 0
  }
  param {
    lr_mult: 0
    decay_mult: 0
  }
  convolution_param {
    num_output: 36
    pad: 0
    kernel_size: 1
    stride: 1
    weight_filler {
      type: "gaussian"
      std: 0.01
    }
    bias_filler {
      type: "constant"
      value: 0
    }
  }
}
layer {
  name: "silence_rpn_cls_score"
  type: "Silence"
  bottom: "rpn_cls_score"
}
layer {
  name: "silence_rpn_bbox_pred"
  type: "Silence"
  bottom: "rpn_bbox_pred"
}
I0909 18:25:36.648119 3420873 layer_factory.hpp:77] Creating layer data
I0909 18:25:36.649102 3420873 net.cpp:106] Creating Layer data
I0909 18:25:36.649132 3420873 net.cpp:411] data -> data
I0909 18:25:36.649147 3420873 net.cpp:411] data -> rois
I0909 18:25:36.649154 3420873 net.cpp:411] data -> labels
I0909 18:25:36.649163 3420873 net.cpp:411] data -> bbox_targets
I0909 18:25:36.649168 3420873 net.cpp:411] data -> bbox_inside_weights
I0909 18:25:36.649176 3420873 net.cpp:411] data -> bbox_outside_weights
RoiDataLayer: name_to_top: {'bbox_inside_weights': 4, 'labels': 2, 'rois': 1, 'bbox_targets': 3, 'bbox_outside_weights': 5, 'data': 0}
I0909 18:25:36.660610 3420873 net.cpp:150] Setting up data
I0909 18:25:36.660630 3420873 net.cpp:157] Top shape: 2 3 600 1024 (3686400)
I0909 18:25:36.660640 3420873 net.cpp:157] Top shape: 1 5 (5)
I0909 18:25:36.660645 3420873 net.cpp:157] Top shape: 1 (1)
I0909 18:25:36.660650 3420873 net.cpp:157] Top shape: 1 84 (84)
I0909 18:25:36.660655 3420873 net.cpp:157] Top shape: 1 84 (84)
I0909 18:25:36.660658 3420873 net.cpp:157] Top shape: 1 84 (84)
I0909 18:25:36.660662 3420873 net.cpp:165] Memory required for data: 14746632
I0909 18:25:36.660668 3420873 layer_factory.hpp:77] Creating layer conv1_1
I0909 18:25:36.660682 3420873 net.cpp:106] Creating Layer conv1_1
I0909 18:25:36.660691 3420873 net.cpp:454] conv1_1 <- data
I0909 18:25:36.660698 3420873 net.cpp:411] conv1_1 -> conv1_1
I0909 18:25:36.663162 3420873 net.cpp:150] Setting up conv1_1
I0909 18:25:36.663193 3420873 net.cpp:157] Top shape: 2 64 600 1024 (78643200)
I0909 18:25:36.663202 3420873 net.cpp:165] Memory required for data: 329319432
I0909 18:25:36.663214 3420873 layer_factory.hpp:77] Creating layer relu1_1
I0909 18:25:36.663223 3420873 net.cpp:106] Creating Layer relu1_1
I0909 18:25:36.663228 3420873 net.cpp:454] relu1_1 <- conv1_1
I0909 18:25:36.663234 3420873 net.cpp:397] relu1_1 -> conv1_1 (in-place)
I0909 18:25:36.663247 3420873 net.cpp:150] Setting up relu1_1
I0909 18:25:36.663256 3420873 net.cpp:157] Top shape: 2 64 600 1024 (78643200)
I0909 18:25:36.663260 3420873 net.cpp:165] Memory required for data: 643892232
I0909 18:25:36.663264 3420873 layer_factory.hpp:77] Creating layer conv1_2
I0909 18:25:36.663272 3420873 net.cpp:106] Creating Layer conv1_2
I0909 18:25:36.663276 3420873 net.cpp:454] conv1_2 <- conv1_1
I0909 18:25:36.663285 3420873 net.cpp:411] conv1_2 -> conv1_2
I0909 18:25:36.665761 3420873 net.cpp:150] Setting up conv1_2
I0909 18:25:36.665793 3420873 net.cpp:157] Top shape: 2 64 600 1024 (78643200)
I0909 18:25:36.665798 3420873 net.cpp:165] Memory required for data: 958465032
I0909 18:25:36.665810 3420873 layer_factory.hpp:77] Creating layer relu1_2
I0909 18:25:36.665820 3420873 net.cpp:106] Creating Layer relu1_2
I0909 18:25:36.665825 3420873 net.cpp:454] relu1_2 <- conv1_2
I0909 18:25:36.665832 3420873 net.cpp:397] relu1_2 -> conv1_2 (in-place)
I0909 18:25:36.665839 3420873 net.cpp:150] Setting up relu1_2
I0909 18:25:36.665845 3420873 net.cpp:157] Top shape: 2 64 600 1024 (78643200)
I0909 18:25:36.665849 3420873 net.cpp:165] Memory required for data: 1273037832
I0909 18:25:36.665853 3420873 layer_factory.hpp:77] Creating layer pool1
I0909 18:25:36.665859 3420873 net.cpp:106] Creating Layer pool1
I0909 18:25:36.665863 3420873 net.cpp:454] pool1 <- conv1_2
I0909 18:25:36.665870 3420873 net.cpp:411] pool1 -> pool1
I0909 18:25:36.665940 3420873 net.cpp:150] Setting up pool1
I0909 18:25:36.665953 3420873 net.cpp:157] Top shape: 2 64 300 512 (19660800)
I0909 18:25:36.665957 3420873 net.cpp:165] Memory required for data: 1351681032
I0909 18:25:36.665962 3420873 layer_factory.hpp:77] Creating layer conv2_1
I0909 18:25:36.665974 3420873 net.cpp:106] Creating Layer conv2_1
I0909 18:25:36.665982 3420873 net.cpp:454] conv2_1 <- pool1
I0909 18:25:36.665989 3420873 net.cpp:411] conv2_1 -> conv2_1
I0909 18:25:36.667078 3420873 net.cpp:150] Setting up conv2_1
I0909 18:25:36.667109 3420873 net.cpp:157] Top shape: 2 128 300 512 (39321600)
I0909 18:25:36.667114 3420873 net.cpp:165] Memory required for data: 1508967432
I0909 18:25:36.667125 3420873 layer_factory.hpp:77] Creating layer relu2_1
I0909 18:25:36.667134 3420873 net.cpp:106] Creating Layer relu2_1
I0909 18:25:36.667138 3420873 net.cpp:454] relu2_1 <- conv2_1
I0909 18:25:36.667146 3420873 net.cpp:397] relu2_1 -> conv2_1 (in-place)
I0909 18:25:36.667155 3420873 net.cpp:150] Setting up relu2_1
I0909 18:25:36.667167 3420873 net.cpp:157] Top shape: 2 128 300 512 (39321600)
I0909 18:25:36.667171 3420873 net.cpp:165] Memory required for data: 1666253832
I0909 18:25:36.667176 3420873 layer_factory.hpp:77] Creating layer conv2_2
I0909 18:25:36.667186 3420873 net.cpp:106] Creating Layer conv2_2
I0909 18:25:36.667192 3420873 net.cpp:454] conv2_2 <- conv2_1
I0909 18:25:36.667199 3420873 net.cpp:411] conv2_2 -> conv2_2
I0909 18:25:36.668951 3420873 net.cpp:150] Setting up conv2_2
I0909 18:25:36.668982 3420873 net.cpp:157] Top shape: 2 128 300 512 (39321600)
I0909 18:25:36.668988 3420873 net.cpp:165] Memory required for data: 1823540232
I0909 18:25:36.668998 3420873 layer_factory.hpp:77] Creating layer relu2_2
I0909 18:25:36.669005 3420873 net.cpp:106] Creating Layer relu2_2
I0909 18:25:36.669010 3420873 net.cpp:454] relu2_2 <- conv2_2
I0909 18:25:36.669018 3420873 net.cpp:397] relu2_2 -> conv2_2 (in-place)
I0909 18:25:36.669025 3420873 net.cpp:150] Setting up relu2_2
I0909 18:25:36.669030 3420873 net.cpp:157] Top shape: 2 128 300 512 (39321600)
I0909 18:25:36.669034 3420873 net.cpp:165] Memory required for data: 1980826632
I0909 18:25:36.669039 3420873 layer_factory.hpp:77] Creating layer pool2
I0909 18:25:36.669045 3420873 net.cpp:106] Creating Layer pool2
I0909 18:25:36.669049 3420873 net.cpp:454] pool2 <- conv2_2
I0909 18:25:36.669055 3420873 net.cpp:411] pool2 -> pool2
I0909 18:25:36.669117 3420873 net.cpp:150] Setting up pool2
I0909 18:25:36.669129 3420873 net.cpp:157] Top shape: 2 128 150 256 (9830400)
I0909 18:25:36.669133 3420873 net.cpp:165] Memory required for data: 2020148232
I0909 18:25:36.669138 3420873 layer_factory.hpp:77] Creating layer conv3_1
I0909 18:25:36.669148 3420873 net.cpp:106] Creating Layer conv3_1
I0909 18:25:36.669155 3420873 net.cpp:454] conv3_1 <- pool2
I0909 18:25:36.669163 3420873 net.cpp:411] conv3_1 -> conv3_1
I0909 18:25:36.670358 3420873 net.cpp:150] Setting up conv3_1
I0909 18:25:36.670387 3420873 net.cpp:157] Top shape: 2 256 150 256 (19660800)
I0909 18:25:36.670393 3420873 net.cpp:165] Memory required for data: 2098791432
I0909 18:25:36.670404 3420873 layer_factory.hpp:77] Creating layer relu3_1
I0909 18:25:36.670413 3420873 net.cpp:106] Creating Layer relu3_1
I0909 18:25:36.670419 3420873 net.cpp:454] relu3_1 <- conv3_1
I0909 18:25:36.670426 3420873 net.cpp:397] relu3_1 -> conv3_1 (in-place)
I0909 18:25:36.670434 3420873 net.cpp:150] Setting up relu3_1
I0909 18:25:36.670439 3420873 net.cpp:157] Top shape: 2 256 150 256 (19660800)
I0909 18:25:36.670444 3420873 net.cpp:165] Memory required for data: 2177434632
I0909 18:25:36.670449 3420873 layer_factory.hpp:77] Creating layer conv3_2
I0909 18:25:36.670457 3420873 net.cpp:106] Creating Layer conv3_2
I0909 18:25:36.670461 3420873 net.cpp:454] conv3_2 <- conv3_1
I0909 18:25:36.670469 3420873 net.cpp:411] conv3_2 -> conv3_2
I0909 18:25:36.672272 3420873 net.cpp:150] Setting up conv3_2
I0909 18:25:36.672302 3420873 net.cpp:157] Top shape: 2 256 150 256 (19660800)
I0909 18:25:36.672307 3420873 net.cpp:165] Memory required for data: 2256077832
I0909 18:25:36.672315 3420873 layer_factory.hpp:77] Creating layer relu3_2
I0909 18:25:36.672323 3420873 net.cpp:106] Creating Layer relu3_2
I0909 18:25:36.672328 3420873 net.cpp:454] relu3_2 <- conv3_2
I0909 18:25:36.672335 3420873 net.cpp:397] relu3_2 -> conv3_2 (in-place)
I0909 18:25:36.672343 3420873 net.cpp:150] Setting up relu3_2
I0909 18:25:36.672348 3420873 net.cpp:157] Top shape: 2 256 150 256 (19660800)
I0909 18:25:36.672353 3420873 net.cpp:165] Memory required for data: 2334721032
I0909 18:25:36.672356 3420873 layer_factory.hpp:77] Creating layer conv3_3
I0909 18:25:36.672366 3420873 net.cpp:106] Creating Layer conv3_3
I0909 18:25:36.672371 3420873 net.cpp:454] conv3_3 <- conv3_2
I0909 18:25:36.672377 3420873 net.cpp:411] conv3_3 -> conv3_3
I0909 18:25:36.674198 3420873 net.cpp:150] Setting up conv3_3
I0909 18:25:36.674229 3420873 net.cpp:157] Top shape: 2 256 150 256 (19660800)
I0909 18:25:36.674235 3420873 net.cpp:165] Memory required for data: 2413364232
I0909 18:25:36.674242 3420873 layer_factory.hpp:77] Creating layer relu3_3
I0909 18:25:36.674257 3420873 net.cpp:106] Creating Layer relu3_3
I0909 18:25:36.674263 3420873 net.cpp:454] relu3_3 <- conv3_3
I0909 18:25:36.674271 3420873 net.cpp:397] relu3_3 -> conv3_3 (in-place)
I0909 18:25:36.674279 3420873 net.cpp:150] Setting up relu3_3
I0909 18:25:36.674293 3420873 net.cpp:157] Top shape: 2 256 150 256 (19660800)
I0909 18:25:36.674298 3420873 net.cpp:165] Memory required for data: 2492007432
I0909 18:25:36.674301 3420873 layer_factory.hpp:77] Creating layer pool3
I0909 18:25:36.674310 3420873 net.cpp:106] Creating Layer pool3
I0909 18:25:36.674319 3420873 net.cpp:454] pool3 <- conv3_3
I0909 18:25:36.674324 3420873 net.cpp:411] pool3 -> pool3
I0909 18:25:36.674382 3420873 net.cpp:150] Setting up pool3
I0909 18:25:36.674393 3420873 net.cpp:157] Top shape: 2 256 75 128 (4915200)
I0909 18:25:36.674397 3420873 net.cpp:165] Memory required for data: 2511668232
I0909 18:25:36.674402 3420873 layer_factory.hpp:77] Creating layer conv4_1
I0909 18:25:36.674412 3420873 net.cpp:106] Creating Layer conv4_1
I0909 18:25:36.674419 3420873 net.cpp:454] conv4_1 <- pool3
I0909 18:25:36.674427 3420873 net.cpp:411] conv4_1 -> conv4_1
I0909 18:25:36.678664 3420873 net.cpp:150] Setting up conv4_1
I0909 18:25:36.678696 3420873 net.cpp:157] Top shape: 2 512 75 128 (9830400)
I0909 18:25:36.678701 3420873 net.cpp:165] Memory required for data: 2550989832
I0909 18:25:36.678709 3420873 layer_factory.hpp:77] Creating layer relu4_1
I0909 18:25:36.678719 3420873 net.cpp:106] Creating Layer relu4_1
I0909 18:25:36.678725 3420873 net.cpp:454] relu4_1 <- conv4_1
I0909 18:25:36.678730 3420873 net.cpp:397] relu4_1 -> conv4_1 (in-place)
I0909 18:25:36.678738 3420873 net.cpp:150] Setting up relu4_1
I0909 18:25:36.678745 3420873 net.cpp:157] Top shape: 2 512 75 128 (9830400)
I0909 18:25:36.678748 3420873 net.cpp:165] Memory required for data: 2590311432
I0909 18:25:36.678752 3420873 layer_factory.hpp:77] Creating layer conv4_2
I0909 18:25:36.678761 3420873 net.cpp:106] Creating Layer conv4_2
I0909 18:25:36.678766 3420873 net.cpp:454] conv4_2 <- conv4_1
I0909 18:25:36.678773 3420873 net.cpp:411] conv4_2 -> conv4_2
I0909 18:25:36.684221 3420873 net.cpp:150] Setting up conv4_2
I0909 18:25:36.684257 3420873 net.cpp:157] Top shape: 2 512 75 128 (9830400)
I0909 18:25:36.684263 3420873 net.cpp:165] Memory required for data: 2629633032
I0909 18:25:36.684278 3420873 layer_factory.hpp:77] Creating layer relu4_2
I0909 18:25:36.684289 3420873 net.cpp:106] Creating Layer relu4_2
I0909 18:25:36.684295 3420873 net.cpp:454] relu4_2 <- conv4_2
I0909 18:25:36.684303 3420873 net.cpp:397] relu4_2 -> conv4_2 (in-place)
I0909 18:25:36.684310 3420873 net.cpp:150] Setting up relu4_2
I0909 18:25:36.684315 3420873 net.cpp:157] Top shape: 2 512 75 128 (9830400)
I0909 18:25:36.684319 3420873 net.cpp:165] Memory required for data: 2668954632
I0909 18:25:36.684324 3420873 layer_factory.hpp:77] Creating layer conv4_3
I0909 18:25:36.684334 3420873 net.cpp:106] Creating Layer conv4_3
I0909 18:25:36.684345 3420873 net.cpp:454] conv4_3 <- conv4_2
I0909 18:25:36.684352 3420873 net.cpp:411] conv4_3 -> conv4_3
I0909 18:25:36.689836 3420873 net.cpp:150] Setting up conv4_3
I0909 18:25:36.689877 3420873 net.cpp:157] Top shape: 2 512 75 128 (9830400)
I0909 18:25:36.689882 3420873 net.cpp:165] Memory required for data: 2708276232
I0909 18:25:36.689891 3420873 layer_factory.hpp:77] Creating layer relu4_3
I0909 18:25:36.689903 3420873 net.cpp:106] Creating Layer relu4_3
I0909 18:25:36.689909 3420873 net.cpp:454] relu4_3 <- conv4_3
I0909 18:25:36.689915 3420873 net.cpp:397] relu4_3 -> conv4_3 (in-place)
I0909 18:25:36.689924 3420873 net.cpp:150] Setting up relu4_3
I0909 18:25:36.689929 3420873 net.cpp:157] Top shape: 2 512 75 128 (9830400)
I0909 18:25:36.689932 3420873 net.cpp:165] Memory required for data: 2747597832
I0909 18:25:36.689936 3420873 layer_factory.hpp:77] Creating layer pool4
I0909 18:25:36.689946 3420873 net.cpp:106] Creating Layer pool4
I0909 18:25:36.689957 3420873 net.cpp:454] pool4 <- conv4_3
I0909 18:25:36.689965 3420873 net.cpp:411] pool4 -> pool4
I0909 18:25:36.690026 3420873 net.cpp:150] Setting up pool4
I0909 18:25:36.690037 3420873 net.cpp:157] Top shape: 2 512 38 64 (2490368)
I0909 18:25:36.690042 3420873 net.cpp:165] Memory required for data: 2757559304
I0909 18:25:36.690045 3420873 layer_factory.hpp:77] Creating layer conv5_1
I0909 18:25:36.690057 3420873 net.cpp:106] Creating Layer conv5_1
I0909 18:25:36.690063 3420873 net.cpp:454] conv5_1 <- pool4
I0909 18:25:36.690070 3420873 net.cpp:411] conv5_1 -> conv5_1
I0909 18:25:36.695550 3420873 net.cpp:150] Setting up conv5_1
I0909 18:25:36.695585 3420873 net.cpp:157] Top shape: 2 512 38 64 (2490368)
I0909 18:25:36.695591 3420873 net.cpp:165] Memory required for data: 2767520776
I0909 18:25:36.695600 3420873 layer_factory.hpp:77] Creating layer relu5_1
I0909 18:25:36.695610 3420873 net.cpp:106] Creating Layer relu5_1
I0909 18:25:36.695614 3420873 net.cpp:454] relu5_1 <- conv5_1
I0909 18:25:36.695621 3420873 net.cpp:397] relu5_1 -> conv5_1 (in-place)
I0909 18:25:36.695629 3420873 net.cpp:150] Setting up relu5_1
I0909 18:25:36.695634 3420873 net.cpp:157] Top shape: 2 512 38 64 (2490368)
I0909 18:25:36.695638 3420873 net.cpp:165] Memory required for data: 2777482248
I0909 18:25:36.695642 3420873 layer_factory.hpp:77] Creating layer conv5_2
I0909 18:25:36.695653 3420873 net.cpp:106] Creating Layer conv5_2
I0909 18:25:36.695662 3420873 net.cpp:454] conv5_2 <- conv5_1
I0909 18:25:36.695670 3420873 net.cpp:411] conv5_2 -> conv5_2
I0909 18:25:36.701491 3420873 net.cpp:150] Setting up conv5_2
I0909 18:25:36.701529 3420873 net.cpp:157] Top shape: 2 512 38 64 (2490368)
I0909 18:25:36.701534 3420873 net.cpp:165] Memory required for data: 2787443720
I0909 18:25:36.701545 3420873 layer_factory.hpp:77] Creating layer relu5_2
I0909 18:25:36.701555 3420873 net.cpp:106] Creating Layer relu5_2
I0909 18:25:36.701560 3420873 net.cpp:454] relu5_2 <- conv5_2
I0909 18:25:36.701566 3420873 net.cpp:397] relu5_2 -> conv5_2 (in-place)
I0909 18:25:36.701575 3420873 net.cpp:150] Setting up relu5_2
I0909 18:25:36.701581 3420873 net.cpp:157] Top shape: 2 512 38 64 (2490368)
I0909 18:25:36.701586 3420873 net.cpp:165] Memory required for data: 2797405192
I0909 18:25:36.701589 3420873 layer_factory.hpp:77] Creating layer conv5_3
I0909 18:25:36.701599 3420873 net.cpp:106] Creating Layer conv5_3
I0909 18:25:36.701603 3420873 net.cpp:454] conv5_3 <- conv5_2
I0909 18:25:36.701611 3420873 net.cpp:411] conv5_3 -> conv5_3
I0909 18:25:36.707099 3420873 net.cpp:150] Setting up conv5_3
I0909 18:25:36.707134 3420873 net.cpp:157] Top shape: 2 512 38 64 (2490368)
I0909 18:25:36.707140 3420873 net.cpp:165] Memory required for data: 2807366664
I0909 18:25:36.707149 3420873 layer_factory.hpp:77] Creating layer relu5_3
I0909 18:25:36.707159 3420873 net.cpp:106] Creating Layer relu5_3
I0909 18:25:36.707165 3420873 net.cpp:454] relu5_3 <- conv5_3
I0909 18:25:36.707171 3420873 net.cpp:397] relu5_3 -> conv5_3 (in-place)
I0909 18:25:36.707180 3420873 net.cpp:150] Setting up relu5_3
I0909 18:25:36.707185 3420873 net.cpp:157] Top shape: 2 512 38 64 (2490368)
I0909 18:25:36.707190 3420873 net.cpp:165] Memory required for data: 2817328136
I0909 18:25:36.707195 3420873 layer_factory.hpp:77] Creating layer conv5_3_relu5_3_0_split
I0909 18:25:36.707201 3420873 net.cpp:106] Creating Layer conv5_3_relu5_3_0_split
I0909 18:25:36.707206 3420873 net.cpp:454] conv5_3_relu5_3_0_split <- conv5_3
I0909 18:25:36.707212 3420873 net.cpp:411] conv5_3_relu5_3_0_split -> conv5_3_relu5_3_0_split_0
I0909 18:25:36.707221 3420873 net.cpp:411] conv5_3_relu5_3_0_split -> conv5_3_relu5_3_0_split_1
I0909 18:25:36.707276 3420873 net.cpp:150] Setting up conv5_3_relu5_3_0_split
I0909 18:25:36.707288 3420873 net.cpp:157] Top shape: 2 512 38 64 (2490368)
I0909 18:25:36.707293 3420873 net.cpp:157] Top shape: 2 512 38 64 (2490368)
I0909 18:25:36.707298 3420873 net.cpp:165] Memory required for data: 2837251080
I0909 18:25:36.707301 3420873 layer_factory.hpp:77] Creating layer roi_pool5
I0909 18:25:36.707319 3420873 net.cpp:106] Creating Layer roi_pool5
I0909 18:25:36.707325 3420873 net.cpp:454] roi_pool5 <- conv5_3_relu5_3_0_split_0
I0909 18:25:36.707332 3420873 net.cpp:454] roi_pool5 <- rois
I0909 18:25:36.707340 3420873 net.cpp:411] roi_pool5 -> pool5
I0909 18:25:36.707350 3420873 roi_pooling_layer.cpp:30] Spatial scale: 0.0625
I0909 18:25:36.707415 3420873 net.cpp:150] Setting up roi_pool5
I0909 18:25:36.707427 3420873 net.cpp:157] Top shape: 1 512 7 7 (25088)
I0909 18:25:36.707432 3420873 net.cpp:165] Memory required for data: 2837351432
I0909 18:25:36.707435 3420873 layer_factory.hpp:77] Creating layer fc6
I0909 18:25:36.707448 3420873 net.cpp:106] Creating Layer fc6
I0909 18:25:36.707455 3420873 net.cpp:454] fc6 <- pool5
I0909 18:25:36.707468 3420873 net.cpp:411] fc6 -> fc6
I0909 18:25:36.949051 3420873 net.cpp:150] Setting up fc6
I0909 18:25:36.949115 3420873 net.cpp:157] Top shape: 1 4096 (4096)
I0909 18:25:36.949120 3420873 net.cpp:165] Memory required for data: 2837367816
I0909 18:25:36.949136 3420873 layer_factory.hpp:77] Creating layer relu6
I0909 18:25:36.949151 3420873 net.cpp:106] Creating Layer relu6
I0909 18:25:36.949162 3420873 net.cpp:454] relu6 <- fc6
I0909 18:25:36.949172 3420873 net.cpp:397] relu6 -> fc6 (in-place)
I0909 18:25:36.949189 3420873 net.cpp:150] Setting up relu6
I0909 18:25:36.949198 3420873 net.cpp:157] Top shape: 1 4096 (4096)
I0909 18:25:36.949201 3420873 net.cpp:165] Memory required for data: 2837384200
I0909 18:25:36.949205 3420873 layer_factory.hpp:77] Creating layer drop6
I0909 18:25:36.949228 3420873 net.cpp:106] Creating Layer drop6
I0909 18:25:36.949234 3420873 net.cpp:454] drop6 <- fc6
I0909 18:25:36.949240 3420873 net.cpp:397] drop6 -> fc6 (in-place)
I0909 18:25:36.949282 3420873 net.cpp:150] Setting up drop6
I0909 18:25:36.949293 3420873 net.cpp:157] Top shape: 1 4096 (4096)
I0909 18:25:36.949297 3420873 net.cpp:165] Memory required for data: 2837400584
I0909 18:25:36.949302 3420873 layer_factory.hpp:77] Creating layer fc7
I0909 18:25:36.949313 3420873 net.cpp:106] Creating Layer fc7
I0909 18:25:36.949318 3420873 net.cpp:454] fc7 <- fc6
I0909 18:25:36.949326 3420873 net.cpp:411] fc7 -> fc7
I0909 18:25:36.990808 3420873 net.cpp:150] Setting up fc7
I0909 18:25:36.990875 3420873 net.cpp:157] Top shape: 1 4096 (4096)
I0909 18:25:36.990886 3420873 net.cpp:165] Memory required for data: 2837416968
I0909 18:25:36.990903 3420873 layer_factory.hpp:77] Creating layer relu7
I0909 18:25:36.990921 3420873 net.cpp:106] Creating Layer relu7
I0909 18:25:36.990931 3420873 net.cpp:454] relu7 <- fc7
I0909 18:25:36.990939 3420873 net.cpp:397] relu7 -> fc7 (in-place)
I0909 18:25:36.990955 3420873 net.cpp:150] Setting up relu7
I0909 18:25:36.990963 3420873 net.cpp:157] Top shape: 1 4096 (4096)
I0909 18:25:36.990967 3420873 net.cpp:165] Memory required for data: 2837433352
I0909 18:25:36.990972 3420873 layer_factory.hpp:77] Creating layer drop7
I0909 18:25:36.990983 3420873 net.cpp:106] Creating Layer drop7
I0909 18:25:36.990988 3420873 net.cpp:454] drop7 <- fc7
I0909 18:25:36.990994 3420873 net.cpp:397] drop7 -> fc7 (in-place)
I0909 18:25:36.991031 3420873 net.cpp:150] Setting up drop7
I0909 18:25:36.991042 3420873 net.cpp:157] Top shape: 1 4096 (4096)
I0909 18:25:36.991046 3420873 net.cpp:165] Memory required for data: 2837449736
I0909 18:25:36.991050 3420873 layer_factory.hpp:77] Creating layer fc7_drop7_0_split
I0909 18:25:36.991060 3420873 net.cpp:106] Creating Layer fc7_drop7_0_split
I0909 18:25:36.991067 3420873 net.cpp:454] fc7_drop7_0_split <- fc7
I0909 18:25:36.991076 3420873 net.cpp:411] fc7_drop7_0_split -> fc7_drop7_0_split_0
I0909 18:25:36.991087 3420873 net.cpp:411] fc7_drop7_0_split -> fc7_drop7_0_split_1
I0909 18:25:36.991148 3420873 net.cpp:150] Setting up fc7_drop7_0_split
I0909 18:25:36.991160 3420873 net.cpp:157] Top shape: 1 4096 (4096)
I0909 18:25:36.991165 3420873 net.cpp:157] Top shape: 1 4096 (4096)
I0909 18:25:36.991169 3420873 net.cpp:165] Memory required for data: 2837482504
I0909 18:25:36.991175 3420873 layer_factory.hpp:77] Creating layer cls_score
I0909 18:25:36.991189 3420873 net.cpp:106] Creating Layer cls_score
I0909 18:25:36.991195 3420873 net.cpp:454] cls_score <- fc7_drop7_0_split_0
I0909 18:25:36.991204 3420873 net.cpp:411] cls_score -> cls_score
I0909 18:25:36.994199 3420873 net.cpp:150] Setting up cls_score
I0909 18:25:36.994215 3420873 net.cpp:157] Top shape: 1 21 (21)
I0909 18:25:36.994220 3420873 net.cpp:165] Memory required for data: 2837482588
I0909 18:25:36.994227 3420873 layer_factory.hpp:77] Creating layer bbox_pred
I0909 18:25:36.994238 3420873 net.cpp:106] Creating Layer bbox_pred
I0909 18:25:36.994246 3420873 net.cpp:454] bbox_pred <- fc7_drop7_0_split_1
I0909 18:25:36.994253 3420873 net.cpp:411] bbox_pred -> bbox_pred
I0909 18:25:37.006275 3420873 net.cpp:150] Setting up bbox_pred
I0909 18:25:37.006294 3420873 net.cpp:157] Top shape: 1 84 (84)
I0909 18:25:37.006299 3420873 net.cpp:165] Memory required for data: 2837482924
I0909 18:25:37.006317 3420873 layer_factory.hpp:77] Creating layer loss_cls
I0909 18:25:37.006340 3420873 net.cpp:106] Creating Layer loss_cls
I0909 18:25:37.006346 3420873 net.cpp:454] loss_cls <- cls_score
I0909 18:25:37.006353 3420873 net.cpp:454] loss_cls <- labels
I0909 18:25:37.006361 3420873 net.cpp:411] loss_cls -> loss_cls
…
I0909 18:25:37.006738 3420873 net.cpp:157] Top shape: (1)
I0909 18:25:37.006742 3420873 net.cpp:160]     with loss weight 1
I0909 18:25:37.006748 3420873 net.cpp:165] Memory required for data: 2837482932
I0909 18:25:37.006753 3420873 layer_factory.hpp:77] Creating layer rpn_conv/3x3
I0909 18:25:37.006772 3420873 net.cpp:106] Creating Layer rpn_conv/3x3
I0909 18:25:37.006783 3420873 net.cpp:454] rpn_conv/3x3 <- conv5_3_relu5_3_0_split_1
I0909 18:25:37.006791 3420873 net.cpp:411] rpn_conv/3x3 -> rpn/output
I0909 18:25:37.082258 3420873 net.cpp:150] Setting up rpn_conv/3x3
I0909 18:25:37.082293 3420873 net.cpp:157] Top shape: 2 512 38 64 (2490368)
I0909 18:25:37.082298 3420873 net.cpp:165] Memory required for data: 2847444404
I0909 18:25:37.082306 3420873 layer_factory.hpp:77] Creating layer rpn_relu/3x3
I0909 18:25:37.082316 3420873 net.cpp:106] Creating Layer rpn_relu/3x3
I0909 18:25:37.082320 3420873 net.cpp:454] rpn_relu/3x3 <- rpn/output
I0909 18:25:37.082326 3420873 net.cpp:397] rpn_relu/3x3 -> rpn/output (in-place)
I0909 18:25:37.082334 3420873 net.cpp:150] Setting up rpn_relu/3x3
I0909 18:25:37.082340 3420873 net.cpp:157] Top shape: 2 512 38 64 (2490368)
I0909 18:25:37.082343 3420873 net.cpp:165] Memory required for data: 2857405876
I0909 18:25:37.082347 3420873 layer_factory.hpp:77] Creating layer rpn/output_rpn_relu/3x3_0_split
I0909 18:25:37.082355 3420873 net.cpp:106] Creating Layer rpn/output_rpn_relu/3x3_0_split
I0909 18:25:37.082360 3420873 net.cpp:454] rpn/output_rpn_relu/3x3_0_split <- rpn/output
I0909 18:25:37.082365 3420873 net.cpp:411] rpn/output_rpn_relu/3x3_0_split -> rpn/output_rpn_relu/3x3_0_split_0
I0909 18:25:37.082371 3420873 net.cpp:411] rpn/output_rpn_relu/3x3_0_split -> rpn/output_rpn_relu/3x3_0_split_1
I0909 18:25:37.082425 3420873 net.cpp:150] Setting up rpn/output_rpn_relu/3x3_0_split
I0909 18:25:37.082437 3420873 net.cpp:157] Top shape: 2 512 38 64 (2490368)
I0909 18:25:37.082442 3420873 net.cpp:157] Top shape: 2 512 38 64 (2490368)
I0909 18:25:37.082444 3420873 net.cpp:165] Memory required for data: 2877328820
I0909 18:25:37.082449 3420873 layer_factory.hpp:77] Creating layer rpn_cls_score
I0909 18:25:37.082464 3420873 net.cpp:106] Creating Layer rpn_cls_score
I0909 18:25:37.082471 3420873 net.cpp:454] rpn_cls_score <- rpn/output_rpn_relu/3x3_0_split_0
I0909 18:25:37.082479 3420873 net.cpp:411] rpn_cls_score -> rpn_cls_score
I0909 18:25:37.083106 3420873 net.cpp:150] Setting up rpn_cls_score
I0909 18:25:37.083129 3420873 net.cpp:157] Top shape: 2 18 38 64 (87552)
I0909 18:25:37.083134 3420873 net.cpp:165] Memory required for data: 2877679028
I0909 18:25:37.083142 3420873 layer_factory.hpp:77] Creating layer rpn_bbox_pred
I0909 18:25:37.083153 3420873 net.cpp:106] Creating Layer rpn_bbox_pred
I0909 18:25:37.083158 3420873 net.cpp:454] rpn_bbox_pred <- rpn/output_rpn_relu/3x3_0_split_1
I0909 18:25:37.083166 3420873 net.cpp:411] rpn_bbox_pred -> rpn_bbox_pred
I0909 18:25:37.084091 3420873 net.cpp:150] Setting up rpn_bbox_pred
I0909 18:25:37.084118 3420873 net.cpp:157] Top shape: 2 36 38 64 (175104)
I0909 18:25:37.084123 3420873 net.cpp:165] Memory required for data: 2878379444
I0909 18:25:37.084131 3420873 layer_factory.hpp:77] Creating layer silence_rpn_cls_score
I0909 18:25:37.084138 3420873 net.cpp:106] Creating Layer silence_rpn_cls_score
I0909 18:25:37.084143 3420873 net.cpp:454] silence_rpn_cls_score <- rpn_cls_score
I0909 18:25:37.084149 3420873 net.cpp:150] Setting up silence_rpn_cls_score
…
