…
weight_decay: 0.0005
stepsize: 60000
snapshot: 0
snapshot_prefix: "zf_rpn"
average_loss: 100
I0908 07:39:54.437057 775080 solver.cpp:81] Creating training net from train_net file: models/widerface/ZF/faster_rcnn_alt_opt/stage1_rpn_train.pt
I0908 07:39:54.437690 775080 net.cpp:49] Initializing net from parameters: 
name: "ZF"
state {
  phase: TRAIN
}
layer {
  name: "input-data"
  type: "Python"
  top: "data"
  top: "im_info"
  top: "gt_boxes"
  python_param {
    module: "roi_data_layer.layer"
    layer: "RoIDataLayer"
    param_str: "\'num_classes\': 2"
  }
}
layer {
  name: "conv1"
  type: "Convolution"
  bottom: "data"
  top: "conv1"
  param {
    lr_mult: 1
  }
  param {
    lr_mult: 2
  }
  convolution_param {
    num_output: 96
    pad: 3
    kernel_size: 7
    stride: 2
  }
}
layer {
  name: "relu1"
  type: "ReLU"
  bottom: "conv1"
  top: "conv1"
}
layer {
  name: "norm1"
  type: "LRN"
  bottom: "conv1"
  top: "norm1"
  lrn_param {
    local_size: 3
    alpha: 5e-05
    beta: 0.75
    norm_region: WITHIN_CHANNEL
    engine: CAFFE
  }
}
layer {
  name: "pool1"
  type: "Pooling"
  bottom: "norm1"
  top: "pool1"
  pooling_param {
    pool: MAX
    kernel_size: 3
    stride: 2
    pad: 1
  }
}
layer {
  name: "conv2"
  type: "Convolution"
  bottom: "pool1"
  top: "conv2"
  param {
    lr_mult: 1
  }
  param {
    lr_mult: 2
  }
  convolution_param {
    num_output: 256
    pad: 2
    kernel_size: 5
    stride: 2
  }
}
layer {
  name: "relu2"
  type: "ReLU"
  bottom: "conv2"
  top: "conv2"
}
layer {
  name: "norm2"
  type: "LRN"
  bottom: "conv2"
  top: "norm2"
  lrn_param {
    local_size: 3
    alpha: 5e-05
    beta: 0.75
    norm_region: WITHIN_CHANNEL
    engine: CAFFE
  }
}
layer {
  name: "pool2"
  type: "Pooling"
  bottom: "norm2"
  top: "pool2"
  pooling_param {
    pool: MAX
    kernel_size: 3
    stride: 2
    pad: 1
  }
}
layer {
  name: "conv3"
  type: "Convolution"
  bottom: "pool2"
  top: "conv3"
  param {
    lr_mult: 1
  }
  param {
    lr_mult: 2
  }
  convolution_param {
    num_output: 384
    pad: 1
    kernel_size: 3
    stride: 1
  }
}
layer {
  name: "relu3"
  type: "ReLU"
  bottom: "conv3"
  top: "conv3"
}
layer {
  name: "conv4"
  type: "Convolution"
  bottom: "conv3"
  top: "conv4"
  param {
    lr_mult: 1
  }
  param {
    lr_mult: 2
  }
  convolution_param {
    num_output: 384
    pad: 1
    kernel_size: 3
    stride: 1
  }
}
layer {
  name: "relu4"
  type: "ReLU"
  bottom: "conv4"
  top: "conv4"
}
layer {
  name: "conv5"
  type: "Convolution"
  bottom: "conv4"
  top: "conv5"
  param {
    lr_mult: 1
  }
  param {
    lr_mult: 2
  }
  convolution_param {
    num_output: 256
    pad: 1
    kernel_size: 3
    stride: 1
  }
}
layer {
  name: "relu5"
  type: "ReLU"
  bottom: "conv5"
  top: "conv5"
}
layer {
  name: "rpn_conv1"
  type: "Convolution"
  bottom: "conv5"
  top: "rpn_conv1"
  param {
    lr_mult: 1
  }
  param {
    lr_mult: 2
  }
  convolution_param {
    num_output: 256
    pad: 1
    kernel_size: 3
    stride: 1
    weight_filler {
      type: "gaussian"
      std: 0.01
    }
    bias_filler {
      type: "constant"
      value: 0
    }
  }
}
layer {
  name: "rpn_relu1"
  type: "ReLU"
  bottom: "rpn_conv1"
  top: "rpn_conv1"
}
layer {
  name: "rpn_cls_score"
  type: "Convolution"
  bottom: "rpn_conv1"
  top: "rpn_cls_score"
  param {
    lr_mult: 1
  }
  param {
    lr_mult: 2
  }
  convolution_param {
    num_output: 18
    pad: 0
    kernel_size: 1
    stride: 1
    weight_filler {
      type: "gaussian"
      std: 0.01
    }
    bias_filler {
      type: "constant"
      value: 0
    }
  }
}
layer {
  name: "rpn_bbox_pred"
  type: "Convolution"
  bottom: "rpn_conv1"
  top: "rpn_bbox_pred"
  param {
    lr_mult: 1
  }
  param {
    lr_mult: 2
  }
  convolution_param {
    num_output: 36
    pad: 0
    kernel_size: 1
    stride: 1
    weight_filler {
      type: "gaussian"
      std: 0.01
    }
    bias_filler {
      type: "constant"
      value: 0
    }
  }
}
layer {
  name: "rpn_cls_score_reshape"
  type: "Reshape"
  bottom: "rpn_cls_score"
  top: "rpn_cls_score_reshape"
  reshape_param {
    shape {
      dim: 0
      dim: 2
      dim: -1
      dim: 0
    }
  }
}
layer {
  name: "rpn-data"
  type: "Python"
  bottom: "rpn_cls_score"
  bottom: "gt_boxes"
  bottom: "im_info"
  bottom: "data"
  top: "rpn_labels"
  top: "rpn_bbox_targets"
  top: "rpn_bbox_inside_weights"
  top: "rpn_bbox_outside_weights"
  python_param {
    module: "rpn.anchor_target_layer"
    layer: "AnchorTargetLayer"
    param_str: "\'feat_stride\': 16"
  }
}
layer {
  name: "rpn_loss_cls"
  type: "SoftmaxWithLoss"
  bottom: "rpn_cls_score_reshape"
  bottom: "rpn_labels"
  top: "rpn_cls_loss"
  loss_weight: 1
  propagate_down: true
  propagate_down: false
  loss_param {
    ignore_label: -1
    normalize: true
  }
}
layer {
  name: "rpn_loss_bbox"
  type: "SmoothL1Loss"
  bottom: "rpn_bbox_pred"
  bottom: "rpn_bbox_targets"
  bottom: "rpn_bbox_inside_weights"
  bottom: "rpn_bbox_outside_weights"
  top: "rpn_loss_bbox"
  loss_weight: 1
  smooth_l1_loss_param {
    sigma: 3
  }
}
layer {
  name: "dummy_roi_pool_conv5"
  type: "DummyData"
  top: "dummy_roi_pool_conv5"
  dummy_data_param {
    data_filler {
      type: "gaussian"
      std: 0.01
    }
    shape {
      dim: 1
      dim: 9216
    }
  }
}
layer {
  name: "fc6"
  type: "InnerProduct"
  bottom: "dummy_roi_pool_conv5"
  top: "fc6"
  param {
    lr_mult: 0
    decay_mult: 0
  }
  param {
    lr_mult: 0
    decay_mult: 0
  }
  inner_product_param {
    num_output: 4096
  }
}
layer {
  name: "relu6"
  type: "ReLU"
  bottom: "fc6"
  top: "fc6"
}
layer {
  name: "fc7"
  type: "InnerProduct"
  bottom: "fc6"
  top: "fc7"
  param {
    lr_mult: 0
    decay_mult: 0
  }
  param {
    lr_mult: 0
    decay_mult: 0
  }
  inner_product_param {
    num_output: 4096
  }
}
layer {
  name: "silence_fc7"
  type: "Silence"
  bottom: "fc7"
}
I0908 07:39:54.437825 775080 layer_factory.hpp:77] Creating layer input-data
I0908 07:39:54.438680 775080 net.cpp:106] Creating Layer input-data
I0908 07:39:54.438697 775080 net.cpp:411] input-data -> data
I0908 07:39:54.438714 775080 net.cpp:411] input-data -> im_info
I0908 07:39:54.438727 775080 net.cpp:411] input-data -> gt_boxes
RoiDataLayer: name_to_top: {'gt_boxes': 2, 'data': 0, 'im_info': 1}
I0908 07:39:54.448204 775080 net.cpp:150] Setting up input-data
I0908 07:39:54.448220 775080 net.cpp:157] Top shape: 1 3 600 1024 (1843200)
I0908 07:39:54.448228 775080 net.cpp:157] Top shape: 1 3 (3)
I0908 07:39:54.448236 775080 net.cpp:157] Top shape: 1 4 (4)
I0908 07:39:54.448242 775080 net.cpp:165] Memory required for data: 7372828
I0908 07:39:54.448251 775080 layer_factory.hpp:77] Creating layer data_input-data_0_split
I0908 07:39:54.448261 775080 net.cpp:106] Creating Layer data_input-data_0_split
I0908 07:39:54.448268 775080 net.cpp:454] data_input-data_0_split <- data
I0908 07:39:54.448278 775080 net.cpp:411] data_input-data_0_split -> data_input-data_0_split_0
I0908 07:39:54.448288 775080 net.cpp:411] data_input-data_0_split -> data_input-data_0_split_1
I0908 07:39:54.448341 775080 net.cpp:150] Setting up data_input-data_0_split
I0908 07:39:54.448353 775080 net.cpp:157] Top shape: 1 3 600 1024 (1843200)
I0908 07:39:54.448361 775080 net.cpp:157] Top shape: 1 3 600 1024 (1843200)
I0908 07:39:54.448369 775080 net.cpp:165] Memory required for data: 22118428
I0908 07:39:54.448374 775080 layer_factory.hpp:77] Creating layer conv1
I0908 07:39:54.448386 775080 net.cpp:106] Creating Layer conv1
I0908 07:39:54.448391 775080 net.cpp:454] conv1 <- data_input-data_0_split_0
I0908 07:39:54.448401 775080 net.cpp:411] conv1 -> conv1
I0908 07:39:54.449925 775080 net.cpp:150] Setting up conv1
I0908 07:39:54.449944 775080 net.cpp:157] Top shape: 1 96 300 512 (14745600)
I0908 07:39:54.449949 775080 net.cpp:165] Memory required for data: 81100828
I0908 07:39:54.449965 775080 layer_factory.hpp:77] Creating layer relu1
I0908 07:39:54.449975 775080 net.cpp:106] Creating Layer relu1
I0908 07:39:54.449982 775080 net.cpp:454] relu1 <- conv1
I0908 07:39:54.449990 775080 net.cpp:397] relu1 -> conv1 (in-place)
I0908 07:39:54.450004 775080 net.cpp:150] Setting up relu1
I0908 07:39:54.450012 775080 net.cpp:157] Top shape: 1 96 300 512 (14745600)
I0908 07:39:54.450018 775080 net.cpp:165] Memory required for data: 140083228
I0908 07:39:54.450023 775080 layer_factory.hpp:77] Creating layer norm1
I0908 07:39:54.450037 775080 net.cpp:106] Creating Layer norm1
I0908 07:39:54.450043 775080 net.cpp:454] norm1 <- conv1
I0908 07:39:54.450050 775080 net.cpp:411] norm1 -> norm1
I0908 07:39:54.450184 775080 net.cpp:150] Setting up norm1
I0908 07:39:54.450196 775080 net.cpp:157] Top shape: 1 96 300 512 (14745600)
I0908 07:39:54.450201 775080 net.cpp:165] Memory required for data: 199065628
I0908 07:39:54.450207 775080 layer_factory.hpp:77] Creating layer pool1
I0908 07:39:54.450217 775080 net.cpp:106] Creating Layer pool1
I0908 07:39:54.450223 775080 net.cpp:454] pool1 <- norm1
I0908 07:39:54.450234 775080 net.cpp:411] pool1 -> pool1
I0908 07:39:54.450281 775080 net.cpp:150] Setting up pool1
I0908 07:39:54.450291 775080 net.cpp:157] Top shape: 1 96 151 257 (3725472)
I0908 07:39:54.450299 775080 net.cpp:165] Memory required for data: 213967516
I0908 07:39:54.450304 775080 layer_factory.hpp:77] Creating layer conv2
I0908 07:39:54.450314 775080 net.cpp:106] Creating Layer conv2
I0908 07:39:54.450320 775080 net.cpp:454] conv2 <- pool1
I0908 07:39:54.450330 775080 net.cpp:411] conv2 -> conv2
I0908 07:39:54.451994 775080 net.cpp:150] Setting up conv2
I0908 07:39:54.452009 775080 net.cpp:157] Top shape: 1 256 76 129 (2509824)
I0908 07:39:54.452015 775080 net.cpp:165] Memory required for data: 224006812
I0908 07:39:54.452026 775080 layer_factory.hpp:77] Creating layer relu2
I0908 07:39:54.452038 775080 net.cpp:106] Creating Layer relu2
I0908 07:39:54.452044 775080 net.cpp:454] relu2 <- conv2
I0908 07:39:54.452052 775080 net.cpp:397] relu2 -> conv2 (in-place)
I0908 07:39:54.452061 775080 net.cpp:150] Setting up relu2
I0908 07:39:54.452069 775080 net.cpp:157] Top shape: 1 256 76 129 (2509824)
I0908 07:39:54.452075 775080 net.cpp:165] Memory required for data: 234046108
I0908 07:39:54.452080 775080 layer_factory.hpp:77] Creating layer norm2
I0908 07:39:54.452092 775080 net.cpp:106] Creating Layer norm2
I0908 07:39:54.452097 775080 net.cpp:454] norm2 <- conv2
I0908 07:39:54.452105 775080 net.cpp:411] norm2 -> norm2
I0908 07:39:54.452220 775080 net.cpp:150] Setting up norm2
I0908 07:39:54.452230 775080 net.cpp:157] Top shape: 1 256 76 129 (2509824)
I0908 07:39:54.452235 775080 net.cpp:165] Memory required for data: 244085404
I0908 07:39:54.452242 775080 layer_factory.hpp:77] Creating layer pool2
I0908 07:39:54.452252 775080 net.cpp:106] Creating Layer pool2
I0908 07:39:54.452258 775080 net.cpp:454] pool2 <- norm2
I0908 07:39:54.452267 775080 net.cpp:411] pool2 -> pool2
I0908 07:39:54.452313 775080 net.cpp:150] Setting up pool2
I0908 07:39:54.452322 775080 net.cpp:157] Top shape: 1 256 39 65 (648960)
I0908 07:39:54.452327 775080 net.cpp:165] Memory required for data: 246681244
I0908 07:39:54.452333 775080 layer_factory.hpp:77] Creating layer conv3
I0908 07:39:54.452347 775080 net.cpp:106] Creating Layer conv3
I0908 07:39:54.452353 775080 net.cpp:454] conv3 <- pool2
I0908 07:39:54.452360 775080 net.cpp:411] conv3 -> conv3
I0908 07:39:54.455734 775080 net.cpp:150] Setting up conv3
I0908 07:39:54.455749 775080 net.cpp:157] Top shape: 1 384 39 65 (973440)
I0908 07:39:54.455755 775080 net.cpp:165] Memory required for data: 250575004
I0908 07:39:54.455767 775080 layer_factory.hpp:77] Creating layer relu3
I0908 07:39:54.455778 775080 net.cpp:106] Creating Layer relu3
I0908 07:39:54.455785 775080 net.cpp:454] relu3 <- conv3
I0908 07:39:54.455796 775080 net.cpp:397] relu3 -> conv3 (in-place)
I0908 07:39:54.455806 775080 net.cpp:150] Setting up relu3
I0908 07:39:54.455814 775080 net.cpp:157] Top shape: 1 384 39 65 (973440)
I0908 07:39:54.455821 775080 net.cpp:165] Memory required for data: 254468764
I0908 07:39:54.455826 775080 layer_factory.hpp:77] Creating layer conv4
I0908 07:39:54.455838 775080 net.cpp:106] Creating Layer conv4
I0908 07:39:54.455843 775080 net.cpp:454] conv4 <- conv3
I0908 07:39:54.455852 775080 net.cpp:411] conv4 -> conv4
I0908 07:39:54.458878 775080 net.cpp:150] Setting up conv4
I0908 07:39:54.458894 775080 net.cpp:157] Top shape: 1 384 39 65 (973440)
I0908 07:39:54.458900 775080 net.cpp:165] Memory required for data: 258362524
I0908 07:39:54.458909 775080 layer_factory.hpp:77] Creating layer relu4
I0908 07:39:54.458920 775080 net.cpp:106] Creating Layer relu4
I0908 07:39:54.458925 775080 net.cpp:454] relu4 <- conv4
I0908 07:39:54.458932 775080 net.cpp:397] relu4 -> conv4 (in-place)
I0908 07:39:54.458942 775080 net.cpp:150] Setting up relu4
I0908 07:39:54.458950 775080 net.cpp:157] Top shape: 1 384 39 65 (973440)
I0908 07:39:54.458957 775080 net.cpp:165] Memory required for data: 262256284
I0908 07:39:54.458964 775080 layer_factory.hpp:77] Creating layer conv5
I0908 07:39:54.458978 775080 net.cpp:106] Creating Layer conv5
I0908 07:39:54.458984 775080 net.cpp:454] conv5 <- conv4
I0908 07:39:54.458994 775080 net.cpp:411] conv5 -> conv5
I0908 07:39:54.461262 775080 net.cpp:150] Setting up conv5
I0908 07:39:54.461277 775080 net.cpp:157] Top shape: 1 256 39 65 (648960)
I0908 07:39:54.461283 775080 net.cpp:165] Memory required for data: 264852124
I0908 07:39:54.461295 775080 layer_factory.hpp:77] Creating layer relu5
I0908 07:39:54.461308 775080 net.cpp:106] Creating Layer relu5
I0908 07:39:54.461314 775080 net.cpp:454] relu5 <- conv5
I0908 07:39:54.461321 775080 net.cpp:397] relu5 -> conv5 (in-place)
I0908 07:39:54.461331 775080 net.cpp:150] Setting up relu5
I0908 07:39:54.461339 775080 net.cpp:157] Top shape: 1 256 39 65 (648960)
I0908 07:39:54.461345 775080 net.cpp:165] Memory required for data: 267447964
I0908 07:39:54.461350 775080 layer_factory.hpp:77] Creating layer rpn_conv1
I0908 07:39:54.461369 775080 net.cpp:106] Creating Layer rpn_conv1
I0908 07:39:54.461374 775080 net.cpp:454] rpn_conv1 <- conv5
I0908 07:39:54.461385 775080 net.cpp:411] rpn_conv1 -> rpn_conv1
I0908 07:39:54.479344 775080 net.cpp:150] Setting up rpn_conv1
I0908 07:39:54.479363 775080 net.cpp:157] Top shape: 1 256 39 65 (648960)
I0908 07:39:54.479369 775080 net.cpp:165] Memory required for data: 270043804
I0908 07:39:54.479378 775080 layer_factory.hpp:77] Creating layer rpn_relu1
I0908 07:39:54.479388 775080 net.cpp:106] Creating Layer rpn_relu1
I0908 07:39:54.479395 775080 net.cpp:454] rpn_relu1 <- rpn_conv1
I0908 07:39:54.479405 775080 net.cpp:397] rpn_relu1 -> rpn_conv1 (in-place)
I0908 07:39:54.479414 775080 net.cpp:150] Setting up rpn_relu1
I0908 07:39:54.479423 775080 net.cpp:157] Top shape: 1 256 39 65 (648960)
I0908 07:39:54.479429 775080 net.cpp:165] Memory required for data: 272639644
I0908 07:39:54.479434 775080 layer_factory.hpp:77] Creating layer rpn_conv1_rpn_relu1_0_split
I0908 07:39:54.479442 775080 net.cpp:106] Creating Layer rpn_conv1_rpn_relu1_0_split
I0908 07:39:54.479449 775080 net.cpp:454] rpn_conv1_rpn_relu1_0_split <- rpn_conv1
I0908 07:39:54.479461 775080 net.cpp:411] rpn_conv1_rpn_relu1_0_split -> rpn_conv1_rpn_relu1_0_split_0
I0908 07:39:54.479470 775080 net.cpp:411] rpn_conv1_rpn_relu1_0_split -> rpn_conv1_rpn_relu1_0_split_1
I0908 07:39:54.479523 775080 net.cpp:150] Setting up rpn_conv1_rpn_relu1_0_split
I0908 07:39:54.479532 775080 net.cpp:157] Top shape: 1 256 39 65 (648960)
I0908 07:39:54.479540 775080 net.cpp:157] Top shape: 1 256 39 65 (648960)
I0908 07:39:54.479545 775080 net.cpp:165] Memory required for data: 277831324
I0908 07:39:54.479552 775080 layer_factory.hpp:77] Creating layer rpn_cls_score
I0908 07:39:54.479568 775080 net.cpp:106] Creating Layer rpn_cls_score
I0908 07:39:54.479573 775080 net.cpp:454] rpn_cls_score <- rpn_conv1_rpn_relu1_0_split_0
I0908 07:39:54.479585 775080 net.cpp:411] rpn_cls_score -> rpn_cls_score
I0908 07:39:54.480027 775080 net.cpp:150] Setting up rpn_cls_score
I0908 07:39:54.480038 775080 net.cpp:157] Top shape: 1 18 39 65 (45630)
I0908 07:39:54.480044 775080 net.cpp:165] Memory required for data: 278013844
I0908 07:39:54.480056 775080 layer_factory.hpp:77] Creating layer rpn_cls_score_rpn_cls_score_0_split
I0908 07:39:54.480067 775080 net.cpp:106] Creating Layer rpn_cls_score_rpn_cls_score_0_split
I0908 07:39:54.480072 775080 net.cpp:454] rpn_cls_score_rpn_cls_score_0_split <- rpn_cls_score
I0908 07:39:54.480080 775080 net.cpp:411] rpn_cls_score_rpn_cls_score_0_split -> rpn_cls_score_rpn_cls_score_0_split_0
I0908 07:39:54.480090 775080 net.cpp:411] rpn_cls_score_rpn_cls_score_0_split -> rpn_cls_score_rpn_cls_score_0_split_1
I0908 07:39:54.480144 775080 net.cpp:150] Setting up rpn_cls_score_rpn_cls_score_0_split
I0908 07:39:54.480154 775080 net.cpp:157] Top shape: 1 18 39 65 (45630)
I0908 07:39:54.480161 775080 net.cpp:157] Top shape: 1 18 39 65 (45630)
I0908 07:39:54.480166 775080 net.cpp:165] Memory required for data: 278378884
I0908 07:39:54.480172 775080 layer_factory.hpp:77] Creating layer rpn_bbox_pred
I0908 07:39:54.480186 775080 net.cpp:106] Creating Layer rpn_bbox_pred
I0908 07:39:54.480195 775080 net.cpp:454] rpn_bbox_pred <- rpn_conv1_rpn_relu1_0_split_1
I0908 07:39:54.480206 775080 net.cpp:411] rpn_bbox_pred -> rpn_bbox_pred
I0908 07:39:54.480767 775080 net.cpp:150] Setting up rpn_bbox_pred
I0908 07:39:54.480778 775080 net.cpp:157] Top shape: 1 36 39 65 (91260)
I0908 07:39:54.480783 775080 net.cpp:165] Memory required for data: 278743924
I0908 07:39:54.480792 775080 layer_factory.hpp:77] Creating layer rpn_cls_score_reshape
I0908 07:39:54.480809 775080 net.cpp:106] Creating Layer rpn_cls_score_reshape
I0908 07:39:54.480815 775080 net.cpp:454] rpn_cls_score_reshape <- rpn_cls_score_rpn_cls_score_0_split_0
I0908 07:39:54.480826 775080 net.cpp:411] rpn_cls_score_reshape -> rpn_cls_score_reshape
I0908 07:39:54.480865 775080 net.cpp:150] Setting up rpn_cls_score_reshape
I0908 07:39:54.480875 775080 net.cpp:157] Top shape: 1 2 351 65 (45630)
I0908 07:39:54.480882 775080 net.cpp:165] Memory required for data: 278926444
I0908 07:39:54.480890 775080 layer_factory.hpp:77] Creating layer rpn-data
I0908 07:39:54.481501 775080 net.cpp:106] Creating Layer rpn-data
I0908 07:39:54.481514 775080 net.cpp:454] rpn-data <- rpn_cls_score_rpn_cls_score_0_split_1
I0908 07:39:54.481523 775080 net.cpp:454] rpn-data <- gt_boxes
I0908 07:39:54.481529 775080 net.cpp:454] rpn-data <- im_info
I0908 07:39:54.481536 775080 net.cpp:454] rpn-data <- data_input-data_0_split_1
I0908 07:39:54.481546 775080 net.cpp:411] rpn-data -> rpn_labels
I0908 07:39:54.481559 775080 net.cpp:411] rpn-data -> rpn_bbox_targets
I0908 07:39:54.481570 775080 net.cpp:411] rpn-data -> rpn_bbox_inside_weights
I0908 07:39:54.481580 775080 net.cpp:411] rpn-data -> rpn_bbox_outside_weights
I0908 07:39:54.482955 775080 net.cpp:150] Setting up rpn-data
I0908 07:39:54.482972 775080 net.cpp:157] Top shape: 1 1 351 65 (22815)
I0908 07:39:54.482980 775080 net.cpp:157] Top shape: 1 36 39 65 (91260)
I0908 07:39:54.482990 775080 net.cpp:157] Top shape: 1 36 39 65 (91260)
I0908 07:39:54.483000 775080 net.cpp:157] Top shape: 1 36 39 65 (91260)
I0908 07:39:54.483006 775080 net.cpp:165] Memory required for data: 280112824
I0908 07:39:54.483014 775080 layer_factory.hpp:77] Creating layer rpn_loss_cls
I0908 07:39:54.483031 775080 net.cpp:106] Creating Layer rpn_loss_cls
I0908 07:39:54.483038 775080 net.cpp:454] rpn_loss_cls <- rpn_cls_score_reshape
I0908 07:39:54.483047 775080 net.cpp:454] rpn_loss_cls <- rpn_labels
I0908 07:39:54.483055 775080 net.cpp:411] rpn_loss_cls -> rpn_cls_loss
…
